weight/0413_18-35_Gray_epoch=1.pt (torch, 308236 bytes, 48 tensors)

conv1.conv2d.weight f4 [32, 1, 3, 3]
00000000: d09a e1bb 0138 373d f9cb a2bc da71 f33d
00000010: b493 913d ee38 0d3c 235a f23c 1af5 c53c
00000020: 4d49 2fbd 7542 62bc 4d3f 0fbb 7a8d 0cbc
00000030: 5fe4 2f3a e4b7 cf3c 1522 5ebc fde5 bf3c
00000040: a7f0 5e3b 98b5 403a 4b33 eabb 0769 d5bc
00000050: 3799 883c a064 02bd b212 3a3c e3e1 073c
00000060: b63c 403d 1c16 5cbc 7693 31bc 55b2 1abe
00000070: bb11 ce3d 3ad2 08be bbca dc3d a9d4 c9bd
00000080: d3b0 413d 9454 00bd 111a 473e 052d ad3d
00000090: 3b59 0dbd 82aa 3ebc 76c6 da3c e6ba f33a
000000a0: c8b6 4c3b c3c5 b63b a474 66bc 4815 a13c
000000b0: 899c bc3c 6260 703d 24a8 6a3d bb5e 933d
000000c0: b330 8e3c 6068 463d 29d1 3b3c e7be 0d3d
000000d0: 330c 8239 8832 c03b cf3d 05bd 07f4 933c
000000e0: 5a3e a63c 8650 8e3c fe63 5abb df12 96bb
000000f0: b8eb bcbc d5d7 babc 191d 0e3d 3ac1 763d
00000100: c940 4fbe 4d78 453d 5e81 3bbd a804 afbb
00000110: 6e64 dc3d f521 4c3d 2bdd 013e 791b c8bb
00000120: 0e27 03bb db04 6fbc d56d 42bd 0447 8c3c
00000130: 6c66 bb3b d3ba d53a d067 d5bc b341 0d3c
00000140: 9262 fe3c a505 a2bb 6a28 ecbc 795c 1cbd
00000150: 2972 a43c bdf6 03bc b004 8b3c c394 20bc
00000160: 4a3d 8f3b 092a c13c 75a6 1abb fdea 733c
00000170: d3cd 1fbb c0e0 82bc 6f33 6a3b 09c4 733b
00000180: c05b fd3b 6438 273c 0460 c73a e4ac 17bb
00000190: 5c85 bf3c 7f71 0ebd de5f dcbb c8f6 6e3c
000001a0: 273b 93bc 0b45 b03c d9c0 1ebd a4ed 473c
000001b0: ac7e 453b 0fb3 973d 2676 f3b9 12de 99bd
000001c0: 07d4 2c3e f0e5 adbd 338a 063e d034 55bd
000001d0: 9df1 4d3d fd9d c63c bfb0 0f3d 6bae 49bc
000001e0: 55e9 363b 7d88 63bd ab29 7bbd 0f41 7abc
000001f0: 395c 02bb f501 b83c d397 153e 602f 65bd
00000200: 6d65 c13d 8a64 803e c867 91be bc47 14be
00000210: 05e7 8f3d fb3c c13e bdcf e03d 7247 223b
00000220: 389d b7bc f4d9 263c 71f0 a83b 8335 9c3c
00000230: e25a 803c a69f 97bb 09a2 f3ba 809e 463a
00000240: ab3d dabc e509 923b d6e0 103b 7198 843c
00000250: e45a 96bb 443c 2abd fc75 9abb daca 943c
00000260: aa22 65bc 89cb c7bb 1067 953b 16e0 a1bc
00000270: 6b7c 563d 9bbe 213c 39ac 5c3d 4a0d 903d
00000280: 104f 213d 37b0 d63b 0872 363c f08b 4ebc
00000290: 06a8 94bc 596b f73b e51f 16bc af97 073c
000002a0: b4c2 963c de71 5b3b fc16 1b3c c4ef 72ba
000002b0: 13ce 03bc 9e86 2d3a c360 c1bc b210 84bc
000002c0: a20b 1b3b 7913 423c 6953 493c 1606 0c3c
000002d0: 642a 6ebd cca9 623d 4245 ef3a f200 f13c
000002e0: 7443 113e a0c7 3d3d d379 2a3d 6598 4cba
000002f0: 22f1 c33c 1fa2 a43c 6b3e a93c 43a5 d7bc
00000300: 28f0 61bc 8cd0 37bc d377 5abb 00cb d93a
00000310: eb11 28bc e4a9 96bc 2a48 af3c 9b89 a4bc
00000320: 8c94 213d 12aa dfbb eaa6 33bc 98ab c1bc
00000330: 129a aabb 4a5d d7bc aa49 5139 64eb 4a3c
00000340: 74f0 683d d8f4 8c3c dae9 51bc 5c67 333e
00000350: aa2e aabc 1a9b 303c 996b 7c3d fe6f 3cbd
00000360: 0efc b13a b551 993a b84a 313d 2de4 ba3c
00000370: f41f 473b 39cd b2bc fdad 92bc 5eed 7ebc
00000380: db18 063d f4ab 83b9 75bc 6e3c e6a7 ec3b
00000390: db96 be3c 8058 a6bc 39af 293c bac1 3dbd
000003a0: 8813 2dbc db4c 653c ca08 7bbc b16d e4bb
000003b0: cbb0 cebb b0f2 833c bf73 e1bc 55ed 563d
000003c0: 2841 713c 3585 eb3b 1164 fa3b a4cb 81bc
000003d0: d1de e3bb 865b d23c f882 78bb 370d 05bd
000003e0: 81e7 e83b 4b38 c33c bb21 82bb 3bd9 4d3c
000003f0: afbd 88bd b4d2 2e3d e611 aabb c447 4cbc
-0.00688491 0.044731144 -0.019872652 0.1188695 0.0710825 0.00861953 0.029583996 0.024164725
-0.042794514 -0.01380979 -0.0021857799 -0.0085786525 0.000670975 0.02535624 -0.0135579305 0.023425097
0.0034017952 0.00073512783 -0.007147228 -0.026051058 0.016674621 -0.031834245 0.011356996 0.008293602
0.0469329 -0.013433006 -0.01083838 -0.15107091 0.100619756 -0.13361445 0.10780855 -0.09855015
0.047287773 -0.03133066 0.19443537 0.084558524 -0.034508925 -0.011637332 0.026705962 0.0018595129
0.0031236876 0.0055777743 -0.014065895 0.019663468 0.02302386 0.058685668 0.057289258 0.07195803
0.017357206 0.048439384 0.011463442 0.034605887 0.0002480462 0.005865399 -0.03252965 0.018060697
0.020293403 0.017372381 -0.003332376 -0.0045798863 -0.023061618 -0.022807995 0.03469572 0.06024287
-0.20239557 0.04821043 -0.04577767 -0.0053411312 0.10761343 0.04983707 0.12682025 -0.0061067906
-0.0020012292 -0.01458856 -0.047468025 0.017123707 0.0057189967 0.0016306288 -0.026050478 0.008621621
0.031052861 -0.0049445205 -0.028827865 -0.038174126 0.020073967 -0.008054432 0.016970009 -0.009801093
0.00437132 0.023579614 -0.0023597751 0.014887569 -0.0024384155 -0.01597631 0.0035736223 0.0037195703
0.0077318847 0.010206316 0.001521111 -0.0023143822 0.02337902 -0.034776207 -0.0067252954 0.014585204
-0.017972542 0.021517297 -0.038758133 0.012202654 0.0030135317 0.074071996 -0.000464366 -0.0751306
0.16877757 -0.08491123 0.13138656 -0.05205232 0.05027925 0.024245257 0.035080668 -0.012309651
0.0027910073 -0.055550087 -0.061319035 -0.0152743 -0.0019891395 0.02246187 0.14608698 -0.055953383
0.094431736 0.25076705 -0.2839949 -0.1448049 0.07026485 0.37741837 0.10977123 0.0024761823
-0.022413835 0.0101838 0.005155616 0.019068485 0.015668336 -0.004627186 -0.0018587719 0.0007576719
-0.026640734 0.004456746 0.002210667 0.016185971 -0.0045884717 -0.04156138 -0.004713772 0.018163133
-0.013985315 -0.0060972613 0.004559405 -0.019760173 0.052364748 0.009872104 0.05387518 0.07033785
0.03938204 0.006551768 0.011135586 -0.012606606 -0.018146526 0.0075506386 -0.009162878 0.00827591
0.018403389 0.0033484618 0.009465929 -0.0009267295 -0.008044737 0.0006619486 -0.02360571 -0.016121242
0.0023658057 0.011845463 0.012287953 0.008546373 -0.058145896 0.055337712 0.0018254893 0.029419396
0.14185888 0.046332955 0.041620087 -0.0007804691 0.023918692 0.020096837 0.020659646 -0.02632392
-0.013790168 -0.011219155 -0.003333558 0.0016616285 -0.010258178 -0.018391557 0.021396715 -0.020085147
0.039448306 -0.006825694 -0.010965088 -0.023641393 -0.005206355 -0.0262896 0.00019959235 0.012385223
0.05686994 0.017206594 -0.012812102 0.17519897 -0.020774204 0.010779167 0.06162605 -0.04600524
0.0013579146 0.0011697324 0.043284148 0.02281388 0.0030384036 -0.021826373 -0.01790523 -0.015559522
0.032738548 -0.00025114382 0.014571299 0.0072221635 0.023265293 -0.020305872 0.010356718 -0.04632733
-0.010563739 0.013995375 -0.01532192 -0.006971084 -0.0063076965 0.016106933 -0.027521012 0.05247243
0.014725007 0.0071875104 0.0076413234 -0.015844174 -0.006954052 0.025678407 -0.003791986 -0.032483306
0.0071076755 0.023830554 -0.003971306 0.012563999 -0.06676804 0.04268141 -0.005190122 -0.012468282

conv1.conv2d.bias f4 [32]
00000000: 1f09 1d3e beb0 92be 5a96 72be 9d6b 303e
00000010: 60b4 6bbe 8385 b93d d84b 17be d59a 4d3e
00000020: 2c7a a2be 7a45 2bbe 3ce1 5dbd b3b1 94be
00000030: e41a 6c3e 84f3 9e3d 76b3 f93c 9ab3 95be
00000040: d7a7 61be 435e 2f3e 42c5 94be ab50 78be
00000050: 1493 f33c 1505 2bbe 12b9 08be cbb7 033b
00000060: 0b5b 86be 8bbf 93be b0cc 76be 68f8 7ebe
00000070: d839 aa3d 3212 873e 5b49 41be 1b22 ed3d
0.1533551 -0.2865047 -0.23690167 0.17228551 -0.23018026 0.090586685 -0.14775026 0.20078595
-0.31733835 -0.16725722 -0.05416988 -0.29041824 0.23057133 0.07761291 0.030481081 -0.29238588
-0.22036682 0.17125802 -0.29056746 -0.24249522 0.029733218 -0.16701157 -0.13351849 0.0020098563
-0.26241335 -0.28857073 -0.2410152 -0.24899447 0.08311814 0.2638107 -0.18875639 0.11578771

CNext_Block2.gamma f4 [32]
00000000: 7b6d 60bc 2119 993d 9ff8 053d e35e 22bd
00000010: b581 453c 29ab a73c 62be bcbc 5254 e53c
00000020: 291f 4dbc dcad debb e040 d63c 6079 a3bd
00000030: 8bd0 1dbd d4ca bd3b 1575 ae3c c2d4 8cbc
00000040: b551 a7bc ec3b a2bc 5c88 043b 9933 70bc
00000050: 14da 84bb 6e6c 743d 9431 ed3c b12e 21bc
00000060: f423 26bd 752b 9abc f927 173d 0dd2 84bc
00000070: 1d05 3cbc a9e6 39bc eb85 ffbb 3617 a2bc
-0.013697977 0.07475496 0.032707807 -0.039641272 0.01205485 0.020467358 -0.02304 0.027994309
-0.012519636 -0.006795628 0.026153982 -0.07982135 -0.03852896 0.0057920013 0.021296063 -0.017191295
-0.020424703 -0.019803964 0.0020222878 -0.014660739 -0.0040543173 0.05967372 0.028954305 -0.009837792
-0.04056163 -0.01881955 0.036903355 -0.016213441 -0.0114758285 -0.011346498 -0.0077979467 -0.019786458

CNext_Block2.dwconv.weight f4 [32, 1, 7, 7]
00000000: 56e8 c73c c31b 5c3c b576 b83c 9575 c7bc
00000010: baef c23c ef8d a7bc 9fc6 cfbb b18c 163c
00000020: 05ec dc3a f712 14bd b323 2b3c 8105 efbc
00000030: b510 1e3c 2a9d f03c 1957 db3b 9ec0 a9bc
00000040: fd82 c03c ab84 5fbb 3c51 e6bc 915b 1bbd
00000050: b007 593b 8f3c 1f3c 3919 0b3d 289d 29bc
00000060: 80a6 45bd 09ff b3bc b473 133c b139 e23c
00000070: e17a 243b 2234 9d3c d60c 0e3d 5479 66bc
00000080: 36f5 4dbc 21ac 7d3d 376f b63c c08f 5ebc
00000090: a365 04bb 1875 123b 1074 693c 9eab c5bb
000000a0: 604b 2d3c da8e c3bb af31 ec3c 1257 8a3c
000000b0: 9ed1 173d d890 063c ed82 baba 4fd7 063d
000000c0: 2756 8ebc 775c 163c 93fe b6bc 6ee0 09bc
000000d0: b0a8 0c3c 4dae 6cbc 26fb 3a3c 7897 43bb
000000e0: 7000 01ba cb2f ea3b 87df a8bc a6eb c93c
000000f0: 64f6 29bd 837a ddba 2798 a5b9 e795 42bc
00000100: 8099 4c3c 1abf 9e3b af0d c4bc bff3 6e3c
00000110: b528 213d 1617 edbb 9522 c0bc 35bc 21bc
00000120: 7274 dc3c 2f7b a4bc 904e 7d3b 24df ff3a
00000130: afe5 843c 579e d2bc 5bf2 283d 397a 003b
00000140: 3acd 9abc 340a 913c f6d8 47bc 89a2 123d
00000150: 90ba ea3b c108 593c 6b5e f8bb 351e e7bb
00000160: 866c e33b 4d89 933c 9c16 853c 62e4 903b
00000170: 8cde fbbb c263 253d fa3c 8dbc 229e 67bc
00000180: b9fb 723c 3358 693c 6f64 ea3c 3b91 39bc
00000190: 6c14 1f3a b2c6 45bc ba36 9fbb f1a4 113c
000001a0: 4201 4b3c 47f2 fabb b7b1 46bc 76a6 8fba
000001b0: 85ef 0c3c 266d 8d3b 939c c4bc ee59 483c
000001c0: fe7b 55bc 607b 353b b9c8 c83c 80fe 15bc
000001d0: e051 89bc 8f48 e73c b0d1 f7bc 2059 833b
000001e0: 086c 79bc e8bc f63c 6c8e 53bb fae2 b43c
000001f0: 994e 10ba a4eb 273a 6061 603b 6805 ea3c
00000200: ff96 0e3c 49d7 8abb 5991 3d3d 6ede 0bbd
00000210: 43ad c03c 5c93 893c 08ef 32bd 1f10 58bc
00000220: a4df 65bc 17a9 c0bc 9cc3 653c 1d7c 773c
00000230: b3df 9eba 436e bdbc 5c3f 40bd 7b18 d23c
00000240: afff eb3b 4d79 1abd 86b3 bf3b ad48 043d
00000250: 68c3 db3c 8f98 093c 6093 8e3c a33e 33bd
00000260: 67e7 9ebc 9357 4abc 2c98 f8bb 1be4 6bbc
00000270: 8296 79bb 0687 023b b76d 97bc dd27 9cbc
00000280: 7918 943c 1516 06bd d91a 07bd fa70 793b
00000290: 21da 29bd 4e0a 043b f183 41ba cd3c 20bd
000002a0: 45db 423c 8c00 0f3d 0fc6 abbc 4f7c 80bc
000002b0: 23dc 893c 388c 8fbc bb6e 0dbc 792d 3d3b
000002c0: 24d7 313c 7996 cdba dd91 80bb 8d76 29bc
000002d0: 655f 0cb9 8f2c b6bc 19ea afbc 2ef3 493c
000002e0: 2eea 90bd a6e9 a33b 1e91 673b 6aa1 97bb
000002f0: e730 44bd e81f 923a 3a34 a1bc 755b 213c
00000300: 9ead f738 c829 15bc a463 c638 11a8 ff3a
00000310: 92f7 dcbc a0e7 b8bc f83d 553c ea21 593b
00000320: 3db7 18bd ab8e 153b 6195 0cbb 522e 99bc
00000330: 22a6 943b 256a 31bb 7e50 2abb df06 003c
00000340: cb57 1cbc c6d0 ba3c 729d e3bb f04a 90bb
00000350: 7488 ebbc 9ea8 a3bc fbca 3bbc e3f0 de3b
00000360: 6af5 2ebc 7aa0 b53c 30c9 fa3c aecf beba
00000370: ebb6 0b3d 450e 893b 3bf8 c2bc bca1 22ba
00000380: e3fe e73b 8c1f b7bc 78e1 8b3c 22b1 0cbc
00000390: 4a6d 80bc e8f3 733c 2992 193c 81ff 93bc
000003a0: 2793 953b 190d 133d 7b1b 41bc ad7d afbb
000003b0: 124e ac3c 3c40 3fb8 b933 e03c faab 22bb
000003c0: bf18 f83c 3810 353c a45d 0bbd db0e c73b
000003d0: 5f4f a83c 4f6b 20bd 7604 b4bc 0729 bdbc
000003e0: 8379 eabb 82bc f6bc 5b4e e2bb 3375 003c
000003f0: 1e47 2fbc bc1c 7dbc 098c 8cbc 1cf0 25bd
0.024402779 0.013434353 0.022517541 -0.02434806 0.023795951 -0.020453421 -0.006340816 0.009188817
0.0016855007 -0.0361509 0.010445523 -0.02917743 0.009647538 0.029371817 0.0066937325 -0.02072173
0.02349996 -0.0034106176 -0.028114907 -0.03792912 0.0033116154 0.009719028 0.0339596 -0.01035241
-0.04825449 -0.021972196 0.008999754 0.0276154 0.0025097656 0.019189898 0.03468021 -0.014067013
-0.01257067 0.061931733 0.022269828 -0.013584077 -0.0020202182 0.0022347625 0.014248863 -0.0060324213
0.010577053 -0.005967957 0.028832285 0.016887221 0.03706514 0.008213244 -0.0014229693 0.032920178
-0.017375065 0.009177319 -0.022338187 -0.008415325 0.00858514 -0.014445853 0.0114124175 -0.002984492
-0.00049210247 0.0071468106 -0.020614399 0.024648499 -0.041494742 -0.0016897473 -0.00031584615 -0.01187656
0.012487769 0.0048445584 -0.023932306 0.014584481 0.039345462 -0.007235418 -0.02345399 -0.009871532
0.026910994 -0.02007827 0.0038651563 0.0019521457 0.016222803 -0.025710268 0.041246753 0.00196041
-0.018896688 0.01770506 -0.012197724 0.035799537 0.0071633533 0.013246716 -0.007579615 -0.0070531615
0.0069404272 0.018009806 0.016246133 0.0044217566 -0.0076864418 0.04037834 -0.01724099 -0.014136823
0.014830523 0.01424222 0.028612344 -0.01132613 0.0006068412 -0.012071298 -0.004858819 0.008889423
0.012390437 -0.0076582762 -0.012127331 -0.0010959643 0.008602028 0.00431599 -0.024000442 0.012228472
-0.01303005 0.0027691945 0.024509775 -0.009154916 -0.016762674 0.02823284 -0.030251354 0.0040084273
-0.015223511 0.030119374 -0.0032280935 0.022080887 -0.0005504876 0.00064056576 0.0034237728 0.028567031
0.008702992 -0.00423709 0.046281192 -0.034147672 0.023520118 0.0167939 -0.04368499 -0.013187437
-0.014030371 -0.023518128 0.014023688 0.0151052745 -0.0012121111 -0.023123866 -0.046935424 0.025646439
0.0072021107 -0.037713338 0.0058502583 0.03229587 0.026826575 0.008398189 0.017404258 -0.043760907
-0.01939745 -0.012349981 -0.0075864997 -0.014397646 -0.0038084094 0.0019916906 -0.018484933 -0.019061977
0.018078076 -0.032735903 -0.03298459 0.0038061724 -0.04146779 0.0020147744 -0.00073820265 -0.039120484
0.011893098 0.03491263 -0.020968465 -0.015684275 0.016828602 -0.017522916 -0.008632357 0.0028866215
0.010854516 -0.0015685103 -0.0039236383 -0.010343206 -0.00013386978 -0.022238044 -0.021473931 0.012326045
-0.07075916 0.0050022183 0.00353343 -0.0046273964 -0.0478982 0.0011148425 -0.019678224 0.009848465
0.000118102165 -0.0091042 9.459935e-05 0.0019505044 -0.02697352 -0.022571385 0.013015263 0.0033131787
-0.037284125 0.0022820632 -0.0021451341 -0.018698845 0.004536406 -0.0027071324 -0.0025987918 0.007814138
-0.009542416 0.022804629 -0.006946259 -0.0044034645 -0.02875159 -0.019977864 -0.0114619685 0.0068036183
-0.010678628 0.022171248 0.030613512 -0.0014557743 0.03410999 0.0041826093 -0.023800006 -0.000620391
0.0070799454 -0.02235391 0.017075285 -0.008587154 -0.015677113 0.014889695 0.009373226 -0.01806617
0.004564661 0.035901163 -0.011786337 -0.005355558 0.02103332 -4.559777e-05 0.027368413 -0.0024821744
0.030285237 0.01105123 -0.03402485 0.006074769 0.02054566 -0.039164837 -0.021974783 -0.023090852
-0.0071555986 -0.030119184 -0.0069063134 0.0078404425 -0.010698108 -0.015448745 -0.017156618 -0.04051219

CNext_Block2.dwconv.bias f4 [32]
00000000: a669 bdbc aa51 1f3d d246 323c 01d8 043c
00000010: 1183 c8bd 4c82 eb3d 3e77 00be de66 1cbd
00000020: 65ab a73d 5479 9ebd cd66 b73d 53d0 ee3d
00000030: f1a1 6ebd dd30 61bd 2aed a9bc 0c1d ccbd
00000040: 9a5c 8ebd 1b01 bc3c 5ebd eebd 4571 f2bc
00000050: da59 f1bd 7a8a a43d bf39 dc3d 30a7 ffbd
00000060: 8ea9 82bd 87a0 b23d 46f1 a9bd 488c ac3c
00000070: cadc f23c 7c1b 733d 030d a93d 37c0 9d3d
-0.023121666 0.03889624 0.010881143 0.00810814 -0.09790624 0.114994615 -0.12545487 -0.03818404
0.08186988 -0.07737985 0.089551546 0.116608284 -0.058259908 -0.05497824 -0.020742971 -0.09966478
-0.06951256 0.022949746 -0.11657213 -0.029595027 -0.11784716 0.08034225 0.10753202 -0.1248306
-0.06379996 0.087220244 -0.082979724 0.021062985 0.029646296 0.059352383 0.08254435 0.07702678

CNext_Block2.norm.weight f4 [32]
00000000: d2ce 803f a9b4 7a3f 458d 7d3f e330 7f3f
00000010: 4c25 803f ec7e 7f3f 19fc 7d3f b6c2 813f
00000020: 495f 803f dd34 7d3f 82c0 793f a092 7f3f
00000030: ed29 7e3f a582 7f3f 9548 8a3f 2190 7e3f
00000040: 43dc 7c3f bbd7 803f 448c 803f 1128 813f
00000050: 0cec 803f cfd2 7d3f 1c3b 7e3f fc01 813f
00000060: bd13 823f 439c 7d3f 4658 7e3f 53be 7c3f
00000070: 6b2d 813f 27b9 803f fe73 7d3f 3c8d 803f
1.0063117 0.97931916 0.99043685 0.9968397 1.0011382 0.9980304 0.99212795 1.0137546
1.0029079 0.9890879 0.9755937 0.99833107 0.99282724 0.9980872 1.08034 0.99438673
0.9877359 1.0065836 1.0042806 1.0090352 1.0072036 0.99149793 0.99308944 1.007873
1.0162274 0.9906656 0.99353445 0.9872791 1.0091985 1.0056504 0.99005115 1.0043101

CNext_Block2.norm.bias f4 [32]
00000000: 4e78 1abb 3a8f 03bc 2a0e a2bb 4742 09b9
00000010: a447 47bc 4cdf 8eba a9f3 b53a a027 76bc
00000020: 1029 6d3c f7f5 65bb df37 d2bb bbd2 6c3c
00000030: a309 4d3c 2e08 40b7 e83d fbba 2019 bbbb
00000040: e299 ce39 089c d23a 910f 7fbc dab0 a93b
00000050: e3c8 193b 36d7 213c a053 363c 954a 80ba
00000060: c3a6 aebc 83d8 133c 0cb0 753a 2067 033c
00000070: bbce a13a c832 d83b 0856 1b3c 5085 0c3c
-0.0023570242 -0.008029753 -0.004945536 -0.00013090028 -0.012163077 -0.0010900288 0.001388182 -0.015024096
0.014475122 -0.0035089233 -0.0064153518 0.014454539 0.012514505 -1.1445996e-05 -0.001916823 -0.0057097822
0.00039406033 0.001606823 -0.015567676 0.005178553 0.0023465685 0.00987797 0.011128336 -0.0009787852
-0.021319753 0.009023788 0.00093722413 0.008020192 0.0012344936 0.0065978505 0.009480961 0.008576706

CNext_Block2.pwconv1.weight f4 [128, 32]
00000000: afab 5c3d 0ab0 73bc 2937 c83d 9a17 5fbd
00000010: 24d7 69bd e46e babd 5f17 cf3d 81eb 32bd
00000020: 0590 363e ebae 29bd a975 adbd 31af 023e
00000030: 478e 143d 8dbe d2bd fd63 a53d eb9c 34be
00000040: 56f9 45bd 4176 de3d 3253 843d 47e2 a1bd
00000050: 7e94 f93d 05cb 203e e9fc 31bd 2216 f83d
00000060: 2748 adbd 2ddd cc3d 6187 29be 1bde 9ebd
00000070: 9efa 1bbd 8f8f 273e 16d7 00be 74c9 f4bd
00000080: f738 eb3d fe0e 81bd 2833 ec3d c2c4 72bd
00000090: 569d 20be 5181 c3bd 7f34 87bd f44d 32be
000000a0: a7eb 123e 6c97 10be 655b 2e3e d57a 0a3e
000000b0: 8596 71bd ec99 3abd 1da2 d13d fde7 febd
000000c0: eec2 053e 30dd 95bd 0c2d b3bd 8a2c 88bc
000000d0: 4388 65bd 2659 ac39 1208 ccbb 38f6 c13d
000000e0: 78af 063d 786b a13d d0da f13d 2bc2 ccbd
000000f0: 00c2 3cbd 5edd e1bd b392 58bb 24a6 9c3d
00000100: b9f3 0c3d 7dd9 1dbd 7a61 ea3d d3f1 ca3d
00000110: f550 ffbd 93ea c1bd 450d 2fbe 6503 803c
00000120: c162 d3bd 6500 e83d 1375 35bd 3058 583c
00000130: d963 20bd f4dc fbbd e7b7 55bd fdf4 53bd
00000140: ac85 0f3c 37d1 093d 2f04 d3bd 41c0 c5bd
00000150: 3d34 483d 532c cabd 30e6 1f3e d6c1 633d
00000160: 6faf d3bd ac7f 6bbd 0cdc 0fbe ab41 06be
00000170: a655 323e d7bd 153d 59bb 20be 062a ee3d
00000180: c285 ddbd 2d20 adbd ccd0 f73d fdb2 bdbd
00000190: a57f 333e 1023 05be 5b2e 05be 1dd4 21bc
000001a0: 43cc c3bb bb25 213e a930 f1bd 7588 24bc
000001b0: 2cd9 b5bd 5f6a bb3d 0299 173e 5c76 f3bc
000001c0: 3b06 02be 6d89 92bd 7fb3 1a3e 6111 bebc
000001d0: 4f54 87bd e52d d2ba d705 aebd 7407 0dbd
000001e0: 8e5b 563e 06a3 35bc ba41 40bd 9b85 95bd
000001f0: 7974 a83d 0e89 9fba e5c0 3bbe 0f8d 89bd
00000200: 7da4 e33d c424 223e 6f2d 073e 95bf b23d
00000210: 27a8 28be 4e15 ab3d 5e24 503d d50f c0ba
00000220: 37a4 07be 395f e6bc bf76 67bd fdb9 0f3c
00000230: e064 6ebb de9e 80bd 13b4 65be 0a62 8d3d
00000240: c73e 0f3e 7fd8 2bbe 436e 42be fb94 1abe
00000250: 0a4e 053e 10b6 cf3d b04e 313e ceec d1bd
00000260: cc7e abbd bb1b 3a3d aa50 183d a1d6 9ebd
00000270: 2bb0 d2bc abfc 393e aebe bfbc f8c4 3c3e
00000280: 2b9a f43d ed5f 00bd 70d4 0bbe 63ad d73d
00000290: eba5 a6bd a8c7 403c 1631 003e 07e4 083e
000002a0: c6c3 2e3d e817 79bd 967b 09be dc91 77bd
000002b0: e9f0 213e 4fba 3abe 660f 2abe 9425 1ebe
000002c0: d72f d53d ca4d dfbd badb ebbc 4ccb a9bc
000002d0: 144a c6bc b9d4 913c 44a9 c8bd 8b0a 633c
000002e0: 321e ad3d 9bfc 183e 80a4 be3d 6d37 da3d
000002f0: e5bd a1bd b97b 883d 292d 173e a376 503d
00000300: 99d3 92bd 0b60 dc3d adcf f63d 6274 01be
00000310: e39b b23d c1e2 0e3d dcd4 62bd 21d1 1bbe
00000320: f12b 19bd 86b9 833d b265 233e 7ac7 e83d
00000330: a0a5 143e 19d4 ddbd 59e9 3dbe de7e 75bd
00000340: 3da3 ea3c be66 b6bd d6a5 63bc c3e6 013e
00000350: 883a a2bc 36e4 093e cca1 9b3d db1f 873b
00000360: eaa8 8abd b8d8 2b3e a044 d5bd 820c 303e
00000370: f2bf fabc dae6 abbd eb91 153e 5e49 d73c
00000380: 9046 053e d1c9 873c 9981 f5bd a489 48bd
00000390: 5210 0b3c 4b47 e53c eed3 e7bd 31da a63c
000003a0: ba6a 89bd ed86 243e 9da4 863d 5191 823d
000003b0: 3540 0dbe 07b4 ea3d f261 2dbe 0999 d83d
000003c0: 225a dabd f639 78bd 748c 2b3c fbd1 92bd
000003d0: f601 3b3e 5b9a f8bc ba93 8cbc 086e 69bc
000003e0: e9ed 0d3c e698 9f3d 5e9e afbc ca35 ecbc
000003f0: 06ac 163e 340c 1fbe 0b59 1cbe 4901 eb3d
0.053874668 -0.014873514 0.09776146 -0.054465868 -0.05708994 -0.09103182 0.101118796 -0.043681625
0.17828377 -0.04142658 -0.084697075 0.12762143 0.0362685 -0.10290251 0.08075712 -0.17637984
-0.04833349 0.10862399 0.06461181 -0.07904487 0.12186526 0.15702446 -0.043454085 0.121135965
-0.084610276 0.100031234 -0.16555549 -0.07757207 -0.038080804 0.16363357 -0.12582049 -0.11952487
0.114854746 -0.06301688 0.11533195 -0.059269674 -0.15685019 -0.095461495 -0.0660181 -0.1741255
0.14347707 -0.14120263 0.17027052 0.13523419 -0.058981437 -0.045556948 0.10235999 -0.12446592
0.13062641 -0.07317579 -0.087488264 -0.0166228 -0.056038152 0.00032872817 -0.006226548 0.094707906
0.032882184 0.07881826 0.11809313 -0.09997972 -0.04608345 -0.110285506 -0.0033046424 0.07648876
0.03441212 -0.03853749 0.114443734 0.099094056 -0.12466613 -0.094685696 -0.17094906 0.015626619
-0.1032157 0.113282 -0.044301104 0.013204619 -0.039157722 -0.12298003 -0.052177336 -0.05174731
0.008759897 0.03364679 -0.10303532 -0.0965581 0.048877943 -0.098717354 0.15615153 0.05560478
-0.10336196 -0.057494804 -0.14048785 -0.13110988 0.17415485 0.036558 -0.15696467 0.11629109
-0.10816528 -0.08453403 0.12100372 -0.09262655 0.17529161 -0.13001657 -0.13005964 -0.009877232
-0.0059752776 0.1573705 -0.11776859 -0.0100422995 -0.08879313 0.09151148 0.14804462 -0.029719524
-0.12697689 -0.07155118 0.15107535 -0.023201646 -0.066078775 -0.0016035406 -0.084972076 -0.034430936
0.20933363 -0.011086231 -0.04693768 -0.07300874 0.082253404 -0.0012171583 -0.18335302 -0.06716358
0.11115358 0.15834337 0.13200925 0.087279476 -0.16470395 0.08353673 0.050815932 -0.0014653156
-0.13246237 -0.028121578 -0.05650973 0.00877237 -0.0036376044 -0.062803015 -0.22431974 0.06903465
0.13988791 -0.16781805 -0.18987374 -0.15095894 0.13018051 0.101421475 0.17315173 -0.10250245
-0.08373794 0.045436602 0.037186302 -0.07755781 -0.025718769 0.18162791 -0.023406353 0.18434513
0.11943468 -0.031341482 -0.13655257 0.10531118 -0.08137115 0.011766352 0.12518725 0.13368236
0.042667173 -0.060813814 -0.1342605 -0.060441837 0.15814556 -0.18235134 -0.16607437 -0.15444022
0.10409515 -0.10903509 -0.028791297 -0.020726822 -0.024205245 0.01780163 -0.0979791 0.013857494
0.08453025 0.14940111 0.0930872 0.10655103 -0.07897548 0.06664223 0.14763321 0.05089439
-0.07169265 0.10760506 0.1205133 -0.12642053 0.08721139 0.034884218 -0.05537878 -0.15216495
-0.03739542 0.0643187 0.15956762 0.11366172 0.14516306 -0.1083147 -0.18546046 -0.059935443
0.028642291 -0.08906315 -0.013894519 0.12685685 -0.0198033 0.13465962 0.0759922 0.0041236705
-0.06770499 0.1678189 -0.1041348 0.17192271 -0.030609105 -0.08393641 0.14606445 0.026280101
0.13015199 0.016575726 -0.119876094 -0.04895939 0.008487778 0.027988097 -0.11319719 0.020367714
-0.067098096 0.16067095 0.06574366 0.06375373 -0.13794024 0.11460119 -0.16931894 0.10576064
-0.10661723 -0.06060215 0.010470498 -0.07168957 0.18262467 -0.03034704 -0.017160285 -0.014247425
0.008662679 0.07792835 -0.02143782 -0.028834242 0.14714059 -0.15531999 -0.15268342 0.114748545

CNext_Block2.pwconv1.bias f4 [128]
00000000: 8d08 333e a269 693d 2e45 5b3d ecd7 c4bd
00000010: 4223 aebc b6b4 d63d db7f 933d 20b4 c33d
00000020: 4d94 83bc 8210 0a3e 3ada c23d 19e1 91bd
00000030: c7f8 cc3c e544 81bd 2fda b7bd a070 963d
00000040: 0e5c c8bd 088b f6bd 60c3 673c 8a90 063e
00000050: 92bd 403e 53d3 afbc 2324 933d a710 cb3d
00000060: 4822 06be 6cd7 adbd d7ca 51bc ae82 c83d
00000070: 571c 303e a0e6 f0bd b761 90bd 6bf7 443d
00000080: d560 5cbd 38e7 a43d b38a d2bd f852 543d
00000090: 59a3 97bd d519 7cbd acb7 abbd 3b86 273e
000000a0: 20be 253e 61eb 27be dc0d d13c d886 90bb
000000b0: 8d91 83bd f134 423e c38c 113e e3dc 06bd
000000c0: 5831 39bd 978d c53d 7e5a 413d b3e2 8fbd
000000d0: 688a b03b c51a f5bd 313d efbc b652 f03d
000000e0: 9fa6 103e 8912 00be c2f2 f0bd 71d0 973d
000000f0: a850 49bd 2a11 8ebd 8e8a 28bc 3bcf 1a3e
00000100: ccb7 353d f2b9 22be f164 203e fc57 e0bc
00000110: 8ee5 083d d971 593d 68ae ca3d 4e97 a63d
00000120: e454 473d 2ded a6bd 88e0 69bc b03c d93a
00000130: 7bd2 e8bd b236 e2bd 443b a3bd 6af1 a53d
00000140: 6d89 0dbe 5c49 1a3d 2c21 483c 0967 7e3d
00000150: 5a89 ee3d 802b 973d 692d 073d d669 b03d
00000160: 3e37 173e cc7b 43bd 9a48 373e 36e3 41be
00000170: 7c62 0bbe a0c7 7e3d 4997 c4bd b1e1 233e
00000180: e42e fd3d 6afe 1d3e 13a9 bbbd b6d4 2bbe
00000190: 1326 143e 516f 02be 9635 233e 7592 dcbd
000001a0: 3286 f13d 0169 d2bd db1c c03d af9e 8e3c
000001b0: 5c2f 863d 3c90 b53d 4f68 23be 9f59 413d
000001c0: b270 d43d 1eb9 f33d a913 ee3d 0b61 1f3e
000001d0: aa26 2cbd bbc3 00be f2ec 5ebd b5e1 413e
000001e0: 15dd bbbd 8eab ab3c 2f09 21be 1258 16be
000001f0: 2604 b3bb 288c 7c3c 832b f93b a678 eabd
0.1748373 0.056985505 0.05353277 -0.09611496 -0.021257047 0.104836866 0.07202121 0.095558405
-0.016061926 0.1348286 0.0951428 -0.07123012 0.02502097 -0.06311969 -0.08977162 0.073457
-0.09783183 -0.12038237 0.014145702 0.13141075 0.18822315 -0.021463072 0.07184627 0.099152856
-0.13099015 -0.08488354 -0.012804708 0.0979055 0.17198311 -0.11762738 -0.070498876 0.04808752
-0.053803284 0.08051914 -0.10280361 0.051836938 -0.07404203 -0.061548073 -0.08384642 0.16359799
0.16185808 -0.16398384 0.025519304 -0.004410606 -0.06424246 0.18965508 0.14213853 -0.032925498
-0.045213073 0.09646147 0.04720544 -0.07025661 0.005387593 -0.119679965 -0.029203983 0.11734526
0.14126061 -0.1250707 -0.117650524 0.07412804 -0.049149185 -0.069368675 -0.01028694 0.15118115
0.044364735 -0.15891245 0.15663506 -0.027385704 0.033422045 0.05308709 0.098965466 0.08134328
0.048664942 -0.081507064 -0.014274724 0.0016573872 -0.11368271 -0.110455886 -0.079702884 0.08102687
-0.13821955 0.037667617 0.01221494 0.06210998 0.116472915 0.07381344 0.03300229 0.086139366
0.14767167 -0.047725484 0.17898789 -0.1893433 -0.13611788 0.062202096 -0.09599168 0.16004063
0.12362459 0.15429083 -0.09163108 -0.16780362 0.14467649 -0.12737776 0.1593841 -0.10770122
0.11793174 -0.10273934 0.09380504 0.01740965 0.06552002 0.08865401 -0.1595776 0.04720461
0.103730574 0.11900543 0.116248436 0.15564363 -0.04202906 -0.12574665 -0.054425187 0.18933757
-0.091730274 0.020955827 -0.1572616 -0.14682034 -0.005463141 0.015414275 0.007604064 -0.11448793

CNext_Block2.pwconv2.weight f4 [32, 128]
00000000: d9bc 0fbd 0944 583d 3b49 323d 3b0f 123d
00000010: b6d6 cb3c 3a64 2d3c 4484 e4bc ad56 843d
00000020: d167 a0bc 794c 533c ac8b acbc a49e 783d
00000030: fa11 33bc a82e 823c 1abe 98bd ebf9 a63d
00000040: f3f1 463d bbc0 083d cceb 333d c895 7cbd
00000050: bb5c 8e3d f941 56bd 6d49 afbc 3111 3f3d
00000060: 766a 513d e172 5cbd 4a67 753c e8ec cb3c
00000070: f8bb 9bbc 7843 8bbc 54d4 563d 3326 36bb
00000080: 46cc 9a3d 5a07 a0bd acc5 64bd dc62 b1bc
00000090: 2cf5 1bbb 7681 cc3c c5a2 153d 9144 a9bc
000000a0: dd0a 3a3d 2e15 6bbc 1812 8dbd fe06 083d
000000b0: 73d1 6d3d fd15 dbbc 1b36 873d e05b 853c
000000c0: 9f9d c4bc f3bf 7ebd 0bf4 9bbd fea8 99bc
000000d0: 9cc5 823d 95ec 25bd a46b afbd 38eb ac3c
000000e0: fb45 8fbd 7d1e 373d 80b0 063c 3dcb f43c
000000f0: 87f1 393c d894 913d 5ddf 8e3d 8c7a ce3c
00000100: 3d8e 6fbd ac48 833c b4dc 56bc 3b6d 60bc
00000110: 2719 9fbd 1514 c7bd 533c cd3c 0a8a c13d
00000120: 9193 a0bd 0f45 82bd f929 1f3d bd4e aabd
00000130: 0798 4d3d e4ed 82bc f377 b13b 4d7e 93bd
00000140: 76c3 84bd 3bef 9b3d 0d1f acbd c4be 96bd
00000150: 7f77 41bb 2501 063d 9e25 af3b 8a5b 2fbc
00000160: 30bd c4bd 6979 343d 647a 913d 18df 88bd
00000170: 8e2c 99bc caba 2abd eef6 c0bc ab4d 8a3d
00000180: b1d6 043d f0fc 793d 560c 7abd 0357 a6bd
00000190: 9c6f bb3d 31a0 9fbd 4fd1 df3c 322e 91bd
000001a0: c9ec b4bd 5658 21bd 3bb2 d53c 76b6 7dbd
000001b0: 4de0 e0bc d632 853d ee86 403d 9e4f 723c
000001c0: eea6 463d cf17 a0bd 70f0 86bd a582 75bd
000001d0: 1d7a a33d 9eb5 983d 6da3 20bd 989b 4ebd
000001e0: dca2 f5bb 186b b3bc 381c a2bd 9b6d 4bbd
000001f0: ca1c 64bd 124d 96bc 8a60 d63c 761b 33bd
00000200: 3b3f 7e3d 1d10 6bbc fede ad3c 649f 7e3b
00000210: c878 a2bd f1b2 6ebe eb50 e73c 611f c8bd
00000220: 199b 65bc 2532 833d 4856 15bd 74bd ce3b
00000230: 3ee5 893d 0c08 5dbd f4d5 f0bb 35d7 323d
00000240: 31ac a3bc a4bd 84bc 114b 90bd ebc5 a5bd
00000250: f489 5b3c 33ec 7e3c c214 333d c97f 24bd
00000260: cc48 dbbd 278d 75bb 6323 13bd be48 5abd
00000270: b258 5d3d 1acd 7a3d c1fc a73c 966d e53c
00000280: db32 633c afb8 093e 4888 293c 9c6d 763d
00000290: cfad 923d 8253 2ebd 15e9 ec3c 67ba d33c
000002a0: 22dd d3bd 9231 993c a11d bebd 801b 87bd
000002b0: 8493 4b3d ae36 453d 21e6 893c e023 65bd
000002c0: cc66 27bd e5dc 1e3e f722 ae3d ff9f c43c
000002d0: 0498 81bd 4595 8dbc 1c6e 10bc ab20 04be
000002e0: d3c8 7a3b 9dbe 163d fd4a 66b8 f6cb 2f3d
000002f0: fc39 9d3d 90c5 f2bb ae4d 743d a34c b33d
00000300: 6fc3 5f3e 77d3 543c a080 92bc 96b5 6bbd
00000310: 3c12 cdbc 8b06 b33d d1dd c4bc 47f3 f23c
00000320: b2be 963c 7238 be3b b24e fd3d 437a 82bd
00000330: 3faf 03bd b62b e13d c640 53bd 7ebe 48bd
00000340: 54ba 1f3d 1127 383b cf13 923d bec9 34bc
00000350: b629 403d 93f3 1ebd a69d 3c3d fd4d b73d
00000360: 236d d53d 1a48 b0bc 4659 7d3b e984 91bc
00000370: 27f6 1a3d 0ce9 803d f03a 80bd acf8 be3d
00000380: 2bd6 e8bd c7a8 c43c a23c 4ebd e148 efbc
00000390: d00d 713d 82a2 94bc ebbc b8ba 445f 30bd
000003a0: 35d0 52bd bb3a 1ebd f473 2cbd 44f4 87bd
000003b0: bd11 163d f92a 9dbd 9b7f cabc d38b a83b
000003c0: 373d 90bc 6d31 c4bd 948b 95bd 2be1 23bc
000003d0: fe01 81bd d80e 4a3b eaa8 663c 0d96 bcbb
000003e0: 2666 36be fcb7 ed3c b77e a9bd 08c5 e0bd
000003f0: c700 a23c 6d2d ca3d 65eb 213d c173 c5bd
-0.03509221 0.05279926 0.04352687 0.035659056 0.024882656 0.010582978 -0.0278951 0.064618446
-0.019580754 0.0128966505 -0.021062694 0.060698166 -0.010929579 0.015891388 -0.07458134 0.08153137
0.048570585 0.033386927 0.043926045 -0.06166628 0.06951281 -0.05230901 -0.021397317 0.046647254
0.05112692 -0.053820495 0.014978239 0.02489324 -0.019010529 -0.016999945 0.052448586 -0.0027793765
0.07558493 -0.07813902 -0.055852577 -0.021653585 -0.0023797257 0.024964076 0.036532182 -0.020662578
0.045420516 -0.014348311 -0.06888217 0.033209793 0.058061074 -0.026743883 0.06602117 0.016279161
-0.02400094 -0.062194776 -0.07614907 -0.01875734 0.06385347 -0.040508825 -0.08565453 0.021108255
-0.069957696 0.04470681 0.008220792 0.029882068 0.0113490885 0.07108468 0.06976197 0.02520492
-0.05848526 0.016025864 -0.013114143 -0.013697918 -0.07768469 -0.09720627 0.025053179 0.09450157
-0.07840646 -0.06360828 0.038858388 -0.083157994 0.050193813 -0.015982576 0.0054159104 -0.07201824
-0.06482594 0.07613989 -0.0840436 -0.073606044 -0.0029520688 0.032715935 0.0053450605 -0.010702977
-0.09606397 0.0440611 0.07103422 -0.06683177 -0.018698003 -0.041682042 -0.023555245 0.06753095
0.03243131 0.061032236 -0.06104692 -0.08122065 0.09152147 -0.07794226 0.027321486 -0.07088889
-0.08834226 -0.039390884 0.026085963 -0.061941586 -0.027450705 0.06503837 0.04700368 0.01478949
0.04849904 -0.07817041 -0.065888286 -0.059939045 0.07982276 0.07456516 -0.039218355 -0.050441355
-0.007496221 -0.021901652 -0.079155385 -0.049665075 -0.055691518 -0.018347297 0.02616908 -0.04372736
0.06207202 -0.014347103 0.021224495 0.0038852328 -0.079331934 -0.23310448 0.028236827 -0.0977161
-0.014014029 0.06406049 -0.036459237 0.0063092057 0.067331776 -0.053962752 -0.007349724 0.04366227
-0.019979568 -0.016203709 -0.07045568 -0.080943905 0.01339959 0.015559244 0.043720968 -0.040160928
-0.10707244 -0.0037468167 -0.03592242 -0.05329203 0.054039665 0.061230756 0.020506265 0.028006356
0.013867105 0.13449357 0.010347433 0.060163125 0.071620576 -0.042560108 0.028919736 0.02584572
-0.10344912 0.018700395 -0.09282995 -0.06597042 0.04970123 0.04814785 0.016833367 -0.055942416
-0.04086952 0.15513952 0.08502763 0.024002073 -0.06327823 -0.017283091 -0.008815315 -0.12903087
0.0038266673 0.036802877 -5.490611e-05 0.04291912 0.07677075 -0.007408805 0.059644394 0.08754852
0.21851896 0.01298987 -0.017883599 -0.05754622 -0.025033109 0.08741482 -0.024031552 0.02965702
0.018401477 0.0058050686 0.123685256 -0.06370976 -0.03214955 0.10994665 -0.051575445 -0.049009793
0.038996056 0.0028099457 0.071326844 -0.011034427 0.04691478 -0.03880651 0.046048783 0.08950422
0.10421207 -0.021518756 0.0038657947 -0.017763572 0.037832405 0.0629445 -0.062612414 0.09324774
-0.11368974 0.02400626 -0.050350793 -0.029209556 0.058851063 -0.018143896 -0.0014094388 -0.043059602
-0.051468093 -0.03863023 -0.04210277 -0.06638387 0.03663801 -0.07674212 -0.02471905 0.0051436215
-0.017607315 -0.0957974 -0.07302013 -0.010002415 -0.06299208 0.0030831601 0.014078358 -0.005755192
-0.17812404 0.029018395 -0.08276122 -0.10975081 0.019775761 0.098719455 0.03953113 -0.09641219

CNext_Block2.pwconv2.bias f4 [32]
00000000: 92d6 063c fd45 db3c 7317 a23d 6fca f23a
00000010: 91c9 3f3d ef20 1f3d d80d 83bd 7e65 3c3c
00000020: 7fba 663d 1d1f 78bd 444f 963d acc6 82bd
00000030: 75d3 1fba ba03 243d 9687 a03d 6c94 103d
00000040: a7b5 163c 763b 24bd 1300 523d 51fd a83c
00000050: e11b c13c e92a 65bc 823e a4bd 1678 3d3d
00000060: 2a17 6bbd 09fd d3bc 2a56 02bd 050c d83b
00000070: 8711 68bd 4756 c1bd 16cb 53bc be82 3cbc
0.0082298685 0.026766771 0.07914629 0.0018523465 0.046823088 0.038849767 -0.06399125 0.011498807
0.0563302 -0.060576547 0.073393375 -0.0638555 -0.0006096878 0.040042616 0.07838361 0.035297796
0.009198583 -0.04009577 0.051269602 0.020628603 0.023572864 -0.013987281 -0.08019735 0.0462571
-0.057395138 -0.025877493 -0.031820454 0.0065932297 -0.05665734 -0.09440284 -0.012926837 -0.011505781

decoder.0.conv2d.weight f4 [32, 32, 3, 3]
00000000: 8f14 3d3c fe88 6e3d 63ad 093d e268 df3c
00000010: 01c9 3d3d bd5e ce3c 7906 97bc a90d d93c
00000020: 8d1c c53c 173f acbc 569c 933c 7809 d4ba
00000030: 7341 5c3b d3da 993c 854f e23b 41d5 b0bc
00000040: d76f bf3c 797c 98bc 09ba c43c f3a4 133d
00000050: 2768 ddbc c0b5 013d 8cf6 f13b cb11 b9bb
00000060: 56a5 26bb 0ba5 ffba be89 f5ba 5efd 073c
00000070: 1618 333d ca7b bd3c df66 a73c f4e8 4fbb
00000080: 88f6 b7bc 9733 d9bc 5b23 d6bc fa7c d43c
00000090: 1fc0 2939 af3c aa3c 289e 25bc b86f d4bb
000000a0: c47a e2bc 89b7 043b 0eef 333d bc0d 2d3d
000000b0: 39f2 803c bebb 0bbb e50c a83c e9c3 303d
000000c0: 27c2 883a bcf6 9e3c ad7c f53c f68c 493c
000000d0: d285 683d c733 fa3c be05 1f3d fe17 85bc
000000e0: 0efa 0fbc 48be 21bb 4724 a43c 3066 8cbb
000000f0: 3eb1 203c b3ea a23c 1f39 c3bb e43b 813c
00000100: 66bd 483d 4f36 6b3c a50b 8a3c a894 073d
00000110: 586d bbbc ffe8 00bc 0082 473b c41d bbbc
00000120: 2252 86bc 0e23 8f3c e417 1dbb b95f ae3b
00000130: a2ba 043d 5472 553a 6311 d6bb f8d9 013c
00000140: f241 f53c c0fd 153d 359f 193d 5a27 503d
00000150: dff0 1f3c 4158 b83c 14dc 09bd e214 c6ba
00000160: dbb5 0b3c 10be 193c 8503 5dbb 708a 03bd
00000170: 14ad 7a3c 0771 2b3d 4f83 903c 1a53 643c
00000180: 5be0 833d 5bfb 8f3c ca13 9dba 4b97 7b3d
00000190: 23ca 863c a487 95bb 2032 153d 20be c33c
000001a0: a666 413d 36c1 a33c 9c5b 1c3d 9833 c83c
000001b0: 6ae9 143d 68b8 ecbc 288c 183c e270 45bc
000001c0: 9539 c73c 46ae 983b fd4e a23b 38c8 333d
000001d0: 7d54 eab9 0ddd d3bc 0911 1ebd f2fe 8dbd
000001e0: 5e25 79bd 50ab 58bd e862 19bc 45d2 43bd
000001f0: 7595 08bd ceeb 243d 434c 113d 391d b33d
00000200: 52b1 713d d4cb 72bd 3f95 8cbd 346d 1e39
00000210: 1f2a 02bd aab6 fcbc 4faa ef3c b2e4 0abc
00000220: 870d 993c 9e55 013c 4d34 5538 bd92 bf3c
00000230: 11e0 a4bc a13a 5dbc c84d 743a 4d2a a0bc
00000240: db66 34bb 9aa6 abbc 0d54 283c ae85 443c
00000250: 5551 003c 1b17 5f3b f2ac 85bc 0abe d5bc
00000260: 1948 103c 96e6 ed3c 021c 5dbc d2cb 383d
00000270: 2499 b3ba 1a93 44bd edb6 963c 9673 b73c
00000280: b955 603c 2008 5d3c dfb2 283b d73f b9bc
00000290: 2c14 133d 9a47 f3bb aee2 c93b 30bc 673b
000002a0: 5696 f0ba 1ac1 363b 25e0 aebb 0ad4 66bd
000002b0: 630b cebc c809 163c 03a3 05bd c67f f8bc
000002c0: 5d47 fbbc be29 91bc 11eb 203c 7d0f 8eba
000002d0: cba6 543d 8676 e73c df26 323d ced4 853c
000002e0: 0341 4b3d 58f9 663c b1dc 1dbb 9809 9a3c
000002f0: a078 4dbb fcb9 ac3c 8af4 133d 3beb 3e3d
00000300: f8df 59bb 2565 803d ab24 2b3d 6c8b c4bb
00000310: 5600 a339 d86e 8e3d 6a09 943b bfe4 513c
00000320: 7ca9 5f3c 552a 183d c42a 263c 2b2f f0bc
00000330: f27f ff3c d998 ba3c 599d 2c3d 29f7 35bd
00000340: fefe 273d 8a1e 813d d22a 48bc e358 9f3d
00000350: 5f7f 423c df22 003d 4752 d03d 6b22 843c
00000360: c842 d73c c016 bcbb 304c 523b 0578 323c
00000370: 6f8f 063d 4439 f1bc 296f fabc 5ed8 c1bb
00000380: 2c0f 3fbb aae5 943c d644 0e3d 2477 023d
00000390: 0b52 1a3d 257b 97bc 2b71 923b 2fde 123d
000003a0: 4e8e 263c de59 163d c437 f73b 2fee 53b9
000003b0: 1ccd 033b 420f 21bd 57f0 42bc ce55 bf3c
000003c0: c2c6 b43b 9f31 5f3c aafd b33b 428c 1c3c
000003d0: 2dd7 71bd 53d3 09bd 4656 d0bc 6c85 91bc
000003e0: 556e 02bd 0331 e73b 1d37 8d39 e8e0 eebc
000003f0: 9ae8 003d e92d 383d 3ed7 203c ba3a 753b
0.011540546 0.058236115 0.03361262 0.027271692 0.04633427 0.02519166 -0.018435704 0.026495771
0.024061466 -0.021026177 0.018018883 -0.0016177138 0.0033608347 0.018781101 0.006906452 -0.021586062
0.02336876 -0.01861404 0.02401449 0.03604598 -0.027027203 0.03166747 0.007384127 -0.005647873
-0.0025428138 -0.0019504143 -0.0018733067 0.008300154 0.043724142 0.023130316 0.020434795 -0.0031724544
-0.022456422 -0.026513858 -0.026139906 0.0259385 0.00016188667 0.02078089 -0.010108508 -0.0064830445
-0.02764643 0.0020250997 0.043929152 0.042249426 0.0157405 -0.002132162 0.020513961 0.043155584
0.0010433838 0.019404761 0.029966677 0.012301674 0.056768246 0.030542267 0.038823836 -0.016246792
-0.008787645 -0.0024680067 0.02003683 -0.0042846426 0.009807883 0.019887304 -0.005957737 0.015775628
0.04900875 0.01435621 0.016851256 0.033100754 -0.022879288 -0.007868051 0.0030442476 -0.022841342
-0.016396586 0.01747277 -0.0023970539 0.0053214696 0.03240455 0.00081423414 -0.0065328344 0.007925503
0.029938672 0.036618948 0.037505347 0.05081878 0.009762018 0.02250302 -0.03365715 -0.0015112425
0.008527244 0.009383693 -0.0033724022 -0.032114446 0.015300054 0.04185584 0.017640738 0.013935829
0.06439277 0.01757591 -0.0011984047 0.06142358 0.016453808 -0.0045632888 0.036424756 0.02389437
0.047217034 0.019989591 0.038173303 0.024438664 0.036355413 -0.028896526 0.00931076 -0.012050839
0.02431945 0.004659447 0.004953264 0.043892115 -0.00044694907 -0.025862241 -0.038590465 -0.069333926
-0.06082665 -0.05289775 -0.00936196 -0.04780795 -0.03334566 0.040263943 0.03547312 0.08745808
0.059006996 -0.059276417 -0.06864404 0.00015108736 -0.03177845 -0.03084882 0.029256014 -0.008477377
0.018683208 0.007893948 5.0831866e-05 0.0233854 -0.020126374 -0.013502748 0.00093194516 -0.01955142
-0.0027527127 -0.020953465 0.0102739455 0.011994762 0.007831891 0.0034040872 -0.016317818 -0.026091594
0.008806252 0.029040616 -0.013495447 0.045116253 -0.0013702256 -0.04799185 0.018397773 0.022393983
0.013692313 0.013490707 0.002574138 -0.022613449 0.03590791 -0.007424307 0.0061610555 0.0035359971
-0.001835535 0.0027886094 -0.0053367787 -0.05635456 -0.025151914 0.0091576055 -0.032626163 -0.030334365
-0.030673677 -0.0177201 0.009821669 -0.0010838356 0.05191688 0.028254759 0.0434941 0.016336825
0.049622547 0.014097534 -0.002408784 0.018803403 -0.0031352416 0.021084778 0.036121882 0.046611052
-0.0033245068 0.06269292 0.041783016 -0.0059980657 0.00031090033 0.069547355 0.004517724 0.012810885
0.013651248 0.037149746 0.010142032 -0.029319366 0.031188939 0.022777962 0.042142246 -0.044425163
0.041014664 0.06304653 -0.01221724 0.07780626 0.011871188 0.031283256 0.10171943 0.016129693
0.026276961 -0.0057400167 0.0032088868 0.010892873 0.032851633 -0.029446252 -0.030570583 -0.0059156856
-0.002915333 0.018175919 0.034733616 0.031851903 0.0376759 -0.018491337 0.004469057 0.035856422
0.010165764 0.036706798 0.0075444896 -0.00020211258 0.0020111268 -0.03932119 -0.011898122 0.023356345
0.005516858 0.01362267 0.0054928856 0.009554924 -0.0590431 -0.0336488 -0.025431763 -0.017763816
-0.031843502 0.007055403 0.00026934678 -0.029159978 0.031471826 0.04496566 0.009816943 0.0037419037

decoder.0.conv2d.bias f4 [32]
00000000: 82a6 683d 155d 563d 6cf7 20bd 8115 903c
00000010: 844a 413d 8c27 47bd 6485 1c3d 7554 babc
00000020: 7730 36bd fa23 a33b 3f97 683d 8f48 9d3b
00000030: 9581 e53c 48ea 1e3d 0d8e 4b3d 1730 543d
00000040: fb3d 3fbd a0cc 56bd f574 443d d623 203d
00000050: 8b31 a63c 2880 c9bc 1fbf 27bc e4b0 28bd
00000060: 9cea 223d a3f1 a43c d1ce 57bd 4df5 673d
00000070: 176c 0b3d aa64 6cbd 4b34 74bc 53bb 6cbd
0.05679942 0.052334864 -0.03929846 0.017588379 0.047190204 -0.0486217 0.03821315 -0.02274535
-0.044479813 0.004978654 0.056784865 0.0047999094 0.028015891 0.038797647 0.049696017 0.051803675
-0.04668997 -0.05244124 0.0479631 0.039096676 0.020287296 -0.024597242 -0.010238438 -0.04118432
0.039774522 0.020134753 -0.05268747 0.05663042 0.03403863 -0.05771319 -0.014905046 -0.057795834

decoder.1.conv2d.weight f4 [16, 32, 3, 3]
00000000: c1ef 8a3c 9866 793b 93d5 8c3b 597d ee3c
00000010: 8eb2 45bd f08a 903a 0ca3 5dbb 5d42 553c
00000020: e81c 2cbc f05d 0f3b 075f ab3c cf51 013d
00000030: 01b3 723c f9e4 4ebd 228d 04bd d347 06bd
00000040: 5ada 05bd 0e2f 3dbd 0258 92bc 5dac 01bc
00000050: f4c1 c43c 2f11 53bc 98b4 8dbc 4a5a 9bbc
00000060: 2e23 2b3c 4aad eebc a907 38bc d9a8 1a3d
00000070: 2b34 22bc fe1a 8e3b 6918 d73c 7bbd 8dbc
00000080: d1c3 ffbc cd76 103c ef3b 263c 4fed 19bc
00000090: 7554 76bc af70 d63c f7dc 46bc e272 de3c
000000a0: 6f14 843c 88c1 be3c 45c9 043d 2223 183c
000000b0: baef d73c 2669 b63c 400d 053c 7af4 6eba
000000c0: cf88 8f39 fb1c 013b ab44 8ebb d7cb 8c3b
000000d0: 8b66 283c 559d ea3c 9795 27bc 4673 763b
000000e0: bd89 233d 88e0 873d a64e a93c c186 bc3c
000000f0: 2536 6ebb eb1e 603d ebc6 213d f184 ad3d
00000100: 67f7 e83b 3b90 dd3c 3685 77bc 13f4 14bd
00000110: 5fa8 4abd a61a cd3c a0ed fa3c 770e d93c
00000120: 275b 883c d0d7 e8bc 6ff2 21bd 5dcf 41bb
00000130: dc1a 5cbc 417b f7bb 5f7f 80bc 44a4 e0b7
00000140: 5c4a fd3c c965 f5bc 8a48 84bc 5f57 f7bc
00000150: b3eb 5cbc 5f6e bb3c 7b6a c8bc 5a36 b2bb
00000160: b9d0 773c fb77 113d 34fc 133c 1590 1dbc
00000170: 77ec 28bd 845e 11bc 039b ba3b ec93 533b
00000180: 6c30 74bb 6675 cd3b 3a68 41bc 9e4d ba3c
00000190: 6d45 953c e92f 043c 5d6e 58bc e31c c8bc
000001a0: c5b7 a9bc dd2f 813c 352e b6bc eddd 30bc
000001b0: ff68 443c c618 983c 947a 2d3d ba4b 99bc
000001c0: 53ec c03c 4b0d 8dbc 98e3 c43b 2865 2b3b
000001d0: b9a7 6d3b bf61 903c 8c65 aebc 2738 e2bb
000001e0: 2689 2abd fede 5fbc 7d5c 1cbc 08db 5abb
000001f0: 649a 403d 1396 093d 6274 023d 5d91 b93c
00000200: b28b 11bc 3503 2f3d 3f60 2abd 7caa d8bc
00000210: c13d 563d 644c 9dbc 8775 b73c 27ee 873c
00000220: 41c7 0abb 324c 5f3c a8c8 80bb 6599 313d
00000230: c1bd f33b f85f e1bc 28bd 2aba d9e5 813c
00000240: 13ee 4538 0746 f03b 1b58 0c3d 6734 023d
00000250: 47c4 623c 3bf6 b93c 4132 8e3c 0415 1a3d
00000260: 8428 1c3d 85c4 19bd 6ce3 423c 763c 18bc
00000270: 96b8 44bc 6e1c 953c e5f3 d23b 82f7 0aba
00000280: 6866 7d3c 7543 90bc 89b7 113d 4ecf e23c
00000290: 4f4d b13b 253f 03bd b1e4 11bd 9363 fabb
000002a0: 2f1a e7bc 0caf dabc 719a 5ebc df1c b7bc
000002b0: 833e 753c ac5c 2f3d a6a8 273b b080 c13c
000002c0: 8bc7 46bb b3c7 42bb 2153 e73b 7156 393d
000002d0: eee2 593d 1985 54bd c517 febb 7740 9c3c
000002e0: bac1 4dbc 3fd2 513d d0af 213c e3fe 2abd
000002f0: f110 f33c 4b0b 733c a411 483d 45fe bf3b
00000300: ec28 f3b9 bb2e 0d3c 8439 cfba 445c 2dbc
00000310: eeb6 103d 8e3d 1f3b 36e1 023d 9fe3 ed3c
00000320: 5cfc 88ba 26af e9bc fc6f 27bc 0775 0a3d
00000330: 9cee 14bd d078 ecbc 49ef aabb fa39 2bbb
00000340: 1178 3bbc 3a32 843b 87ff e7bb 540c 843c
00000350: b6d6 10bb 489f 67bb df4e 92bc bee5 2ebb
00000360: ee87 373d 74ef 313c 76ca cd3b 81a8 393d
00000370: 1783 123d ed31 8a3c 8081 fe3c 7aec fb3c
00000380: 1389 513b e667 2bbb ef78 f83c 990c 0e3d
00000390: 53ba 2a3c 9587 c33c 0da8 db3c dc25 253d
000003a0: 311e b13b dba9 813c 5c5d 8cbc 517e c0bb
000003b0: f22c ba3c 7e87 b03c 9549 cebc 47e0 04bd
000003c0: ec13 cfbc ed33 0b3c 067a 24bb 2d10 4f3c
000003d0: a738 6d3b 6ea2 fabb a851 033d 7566 d23c
000003e0: 996b a63b 51fc 13bc ed58 943c 5b90 0f3b
000003f0: d5a7 353b 7c16 81bc 77af 6ebb c9e4 0d3c
0.016960027 0.0038055535 0.004297921 0.029112505 -0.048265986 0.0011027735 -0.0033819107 0.0130163105
-0.010504939 0.002187606 0.020919336 0.03157216 0.014813186 -0.050511334 -0.032361157 -0.03278334
-0.03267894 -0.046187453 -0.017864231 -0.00791463 0.024018265 -0.012882515 -0.017298028 -0.018963952
0.010445399 -0.029135365 -0.011232295 0.037758682 -0.009900133 0.004336714 0.026256757 -0.017302265
-0.031221302 0.008817387 0.010146125 -0.009394958 -0.015034785 0.026176779 -0.012137643 0.02715439
0.016123025 0.023285642 0.032418508 0.00928572 0.026359428 0.022266936 0.008120835 -0.00091154093
0.00027377016 0.0019701112 -0.004341682 0.0042967605 0.010278354 0.028639475 -0.010228536 0.003760533
0.03992628 0.06634623 0.020667385 0.023013474 -0.003634819 0.054716986 0.039496344 0.08472622
0.007109571 0.027046314 -0.015107444 -0.03636558 -0.049476977 0.025037121 0.030630887 0.026496155
0.016645027 -0.02842322 -0.039537843 -0.002957306 -0.013434138 -0.007552535 -0.015685735 -2.6779373e-05
0.030919246 -0.029955762 -0.01614787 -0.030193029 -0.013483929 0.022879777 -0.024464836 -0.005438608
0.015125447 0.035514813 0.009032298 -0.009616871 -0.041241135 -0.008872632 0.0056947484 0.0032284213
-0.0037260307 0.0062700985 -0.011804635 0.022742089 0.018221581 0.008068063 -0.013209906 -0.024427837
-0.020717511 0.015769893 -0.02223883 -0.010795099 0.011987924 0.0185665 0.042353228 -0.018712867
0.023550188 -0.017218253 0.0060085766 0.0026152823 0.00362633 0.017624734 -0.021288656 -0.0069036665
-0.0416347 -0.013664005 -0.009543535 -0.0033394713 0.04702224 0.033590388 0.031849273 0.022652322
-0.008883404 0.042727668 -0.041595694 -0.02644848 0.052304987 -0.019201465 0.022394909 0.016593052
-0.0021175893 0.013629006 -0.00393017 0.04335918 0.007438392 -0.027511582 -0.0006513172 0.01585667
4.7190184e-05 0.0073325667 0.03426371 0.031788256 0.0138407415 0.02270042 0.017357947 0.0376177
0.038124576 -0.03754093 0.011895042 -0.009291759 -0.012006899 0.018202033 0.006437766 -0.0005301164
0.01546631 -0.017610291 0.035575423 0.027686741 0.005410827 -0.03204264 -0.035618488 -0.0076412647
-0.028210727 -0.026694797 -0.013586626 -0.022352634 0.014968517 0.04281299 0.00255827 0.023620933
-0.003033134 -0.002972108 0.0070594703 0.045248453 0.053194933 -0.051884744 -0.0077542984 0.019073708
-0.012558395 0.051225897 0.009868577 -0.041746985 0.029671164 0.014834235 0.04884495 0.0058591687
-0.0004637906 0.008617098 -0.0015809988 -0.01058108 0.035330705 0.0024298164 0.03195306 0.029039202
-0.0010451186 -0.0285259 -0.01021957 0.033803012 -0.036360368 -0.028866202 -0.0052165133 -0.0026127086
-0.0114422 0.004034308 -0.007080022 0.01611916 -0.0022100634 -0.0035342742 -0.017859874 -0.002668723
0.044807367 0.010860313 0.0062802387 0.045326713 0.03576955 0.01686951 0.03106761 0.03075241
0.0031972572 -0.0026154458 0.030331103 0.034679983 0.0104204 0.023868361 0.026813531 0.04031931
0.0054052104 0.015828064 -0.017134361 -0.005874433 0.02272651 0.021548983 -0.025181571 -0.03244045
-0.025278054 0.008496267 -0.0025097146 0.012638134 0.0036197098 -0.0076487577 0.032060295 0.025683621
0.0050787446 -0.009032325 0.01810881 0.002190611 0.0027718444 -0.015757792 -0.0036420503 0.008660504

decoder.1.conv2d.bias f4 [16]
00000000: 0c73 55bb a8fd 0dbd 0a8d f0bc bd7d 583d
00000010: 956f e83c 177e 0cbd db50 f83a cba6 083d
00000020: 752f 1f3d e5ac 44bd ad3e 9f3c 8e44 bdbc
00000030: 058a e3bc d351 423c 5ce0 603d 17a7 fd3c
-0.0032569794 -0.034665734 -0.029364128 0.05285429 0.028373519 -0.034299936 0.0018944995 0.03336219
0.038863618 -0.048016448 0.019439066 -0.023103978 -0.027775774 0.011860329 0.054901466 0.030963464
