weight/0413_19-12_RGB_epoch=1.pt (torch, 318604 bytes, 51 tensors)

conv1.conv2d.weight f4 [32, 3, 3, 3]
0.012332402 0.039188284 -0.0040735477 -0.011579087 0.07572819 -0.03628621 -0.011651741 -0.039038222
-0.01396646 0.018809028 -0.0054488187 -0.0025779377 0.0017243362 0.1366536 0.0046191234 0.03373299
0.035819974 0.0060152505 0.0052816835 0.036748294 -0.011989302 0.013461947 0.15044093 -0.039402153
0.024999268 -0.044777196 0.0032663152 -0.02271559 0.019823592 -0.020289008 -0.00054350717 0.011935601
0.01937801 0.016175471 -0.0025026784 -0.00833424 -0.019295266 0.016654283 0.02732266 -0.024907224
-0.027345803 0.0041673225 -0.02696965 0.019575102 0.006425976 0.0068979156 -0.026618233 0.0046618553
-0.0038947575 0.02367231 -0.016307218 -0.0072041694 -0.009919005 0.022217778 0.02467953 0.057573635
0.05290636 0.05254208 0.022965174 0.017043613 0.0336232 0.059779212 0.012485615 -0.0331388
0.034349043 0.022294335 0.06858817 -0.0599316 0.0042077326 -0.002593643 0.024479264 -0.021512901
0.008385774 0.04080028 0.018691108 0.054513473 -0.07537774 -0.028328959 0.009054824 -0.0018714888
-0.04551456 0.022850221 0.022396002 0.016742436 -0.025093123 0.12318016 0.030672528 0.0026318596
-0.007099372 0.028390218 -0.014893847 0.043463416 -0.02301976 -0.058189318 0.12240312 0.039622206
-0.0017979243 -0.015353329 0.014343937 -0.009917774 -0.021360353 -0.057196207 -0.04170439 0.05152843
0.0009927398 0.061420966 0.003117602 0.0040463754 0.04788809 -0.032909572 0.028927958 0.048409875
0.07962735 -0.02598166 -0.008254292 0.028264696 0.0019438459 0.0087401215 -0.01609157 0.06429133
0.017513655 0.053306628 -0.009367057 -0.03494119 0.012910402 -0.0011514655 -0.0021610912 -0.027540717
0.07191252 0.053374693 0.016723156 0.0035470205 -0.016210256 0.047978766 -0.016000234 0.07975323
0.078807116 -0.010428489 0.010793099 -0.04480935 -0.034765135 -0.010216001 -0.03700193 0.017273227
0.06602956 0.06490572 -0.023634557 -0.015510714 -0.05302171 -0.05698067 -0.052978247 -0.028258067
-0.017294792 0.07031208 0.10193691 0.0116856955 0.037748545 0.071648866 0.009578482 0.03178806
0.07668728 0.064053304 0.063681036 0.11425299 -0.014002774 0.062080476 0.04429389 0.059834443
0.019545931 -0.000563887 0.021457987 0.0296959 0.030278139 0.036124904 0.014008179 0.045381375
0.051823165 -0.036897283 -0.017143464 -0.013237317 -0.020556092 0.005169972 -0.004198979 -0.025317337
-0.051763374 -0.02638357 -0.02726597 -0.017287927 -0.038741786 0.028238807 -0.027239645 0.020347718
-0.0105790645 -0.021092305 0.0041529187 0.020784328 0.031479917 -0.037519954 -0.016997242 -0.008938245
-0.017863806 -0.0027980567 0.011026183 0.024134506 0.015085583 -0.026349679 -0.009139437 -0.0013686412
0.013643279 -0.020362865 0.008458525 -0.0091320705 0.015818736 0.013919024 0.023649197 -0.03257913
0.014790867 -0.007013179 -0.012313208 0.004126481 -0.005314716 0.01591443 0.028375592 0.021387521
0.0125685455 0.013337487 -0.059887346 0.03218584 -0.0033083928 0.014631187 -0.047758777 0.00024458094
-0.008876195 -0.02527638 0.00073305634 0.0039071585 0.0033695074 0.035827417 0.011460014 0.02885612
0.026131354 -0.010124503 0.011104053 0.026229408 0.043877535 0.054610714 0.034261048 0.10684041
0.02840613 -0.015351767 0.008815639 0.019464895 -0.026430663 0.0035208738 0.01061434 0.020475702
00000000: d80d 4a3c e583 203d 657b 85bb 36b6 3dbc
00000010: 6217 9b3d d9a0 14bd f2e6 3ebc 8be6 1fbd
00000020: 94d3 64bc 6415 9a3c 018c b2bb 9ef2 28bb
00000030: 1f03 e23a ecee 0b3e 045c 973b 9b2b 0a3d
00000040: f7b7 123d 941b c53b f911 ad3b 6185 163d
00000050: c76e 44bc 808f 5c3c 300d 1a3e 2764 21bd
00000060: 44cb cc3c 4b68 37bd ad0f 563b 0c16 babc
00000070: 1665 a23c 2235 a6bc 267a 0eba 8a8d 433c
00000080: a2be 9e3c 6c82 843c fa03 24bb 568c 08bc
00000090: 1b11 9ebc 906e 883c c5d3 df3c 3c0a ccbc
000000a0: 4e04 e0bc 098e 883b 75ef dcbc f75b a03c
000000b0: fe90 d23b e907 e23b 7b0e dabc 7ac2 983b
000000c0: 303f 7fbb 6fec c13c b796 85bc f410 ecbb
000000d0: 5383 22bc 0f02 b63c ba2c ca3c 55d2 6b3d
000000e0: 57b4 583d 5d36 573d 7621 bc3c 0c9f 8b3c
000000f0: 7bb8 093d 0cdb 743d 7790 4c3c 8dbc 07bd
00000100: 95b1 0c3d 9ca2 b63c f477 8c3d d67a 75bd
00000110: 05e1 893b 1cfa 29bb bd88 c83c d33b b0bc
00000120: 7c64 093c 321e 273d 181e 993c 8549 5f3d
00000130: a55f 9abd 2212 e8bc af5a 143c be4c f5ba
00000140: 7a6d 3abd 6330 bb3c d277 b73c 6f27 893c
00000150: 1890 cdbc e145 fc3d f444 fb3c 477b 2c3b
00000160: d9a1 e8bb 9a92 e83c 5205 74bc b206 323d
00000170: f093 bcbc ec57 6ebd 7dae fa3d e54a 223d
00000180: 54a8 ebba 878c 7bbc d502 6b3c 297e 22bc
00000190: e8fb aebc 9246 6abd 39d2 2abd 7a0f 533d
000001a0: d21e 823a 8d94 7b3d af50 4c3b 7597 843b
000001b0: 4d26 443d 30cc 06bd 53fa ec3c 6f49 463d
000001c0: aa13 a33d 7dd7 d4bc 033d 07bc 5d8b e73c
000001d0: a5c8 fe3a ba32 0f3c 78d2 83bc 2cab 833d
000001e0: cc78 8f3c 0d58 5a3d 4978 19bc 7e1e 0fbd
000001f0: 2786 533c c5ec 96ba 18a1 0dbb 129d e1bc
00000200: df46 933d 6c9f 5a3d 00ff 883c 2175 683b
00000210: 5fcb 84bc 6285 443d ec12 83bc a955 a33d
00000220: a065 a13d 41dc 2abc 8ad5 303c 028a 37bd
00000230: e365 0ebd 0461 27bc 568f 17bd 9580 8d3c
00000240: 823a 873d 4aed 843d 429d c1bc a620 7ebc
00000250: 4b2d 59bd 9064 69bd b8ff 58bd 767d e7bc
00000260: cfad 8dbc c8ff 8f3d 4cc4 d03d 5c75 3f3c
00000270: 389e 1a3d a4bc 923d 11ef 1c3c 3234 023d
00000280: 380e 9d3d 612e 833d 346b 823d 79fd e93d
00000290: e46b 65bc 1948 7e3d 836d 353d f614 753d
000002a0: ca1e a03c d1d1 13ba a9c8 af3c d144 f33c
000002b0: dc09 f83c b5f7 133d 9082 653c d2e1 393d
000002c0: 8744 543d 9b21 17bd 7370 8cbc 55e1 58bc
000002d0: 4065 a8bc de68 a93b 9797 89bb 4e66 cfbc
000002e0: d505 54bd 5b22 d8bc e25c dfbc 699f 8dbc
000002f0: b5af 1ebd 1255 e73c ad25 dfbc 42b0 a63c
00000300: d053 2dbc c5c9 acbc 3515 883b e543 aa3c
00000310: 16f1 003d 86ae 19bd cd3d 8bbc b771 12bc
00000320: 1e57 92bc 9a5f 37bb 2aa7 343c bab5 c53c
00000330: 8529 773c 48db d7bc 94bd 15bc fa63 b3ba
00000340: 0f88 5f3c 06d0 a6bc a095 0a3c ae9e 15bc
00000350: 4b96 813c 9e0c 643c f6bb c13c b271 05bd
00000360: 6555 723c cfce e5bb 56bd 49bc 6e37 873b
00000370: 1227 aebb fb5e 823c ee73 e83c e234 af3c
00000380: 4dec 4d3c 7a85 5a3c 6f4c 75bd 4dd5 033d
00000390: 9fd1 58bb a5b7 6f3c b59e 43bd 193b 8039
000003a0: 766d 11bc 6910 cfbc 942a 403a 9f07 803b
000003b0: f4d2 5c3b c5bf 123d c8c2 3b3c ab63 ec3c
000003c0: 6c11 d63c 3ee1 25bc c6ed 353c 0edf d63c
000003d0: eeb8 333d 7caf 5f3d 5055 0c3d 25cf da3d
000003e0: f9b3 e83c fa85 7bbc 786f 103c d874 9f3c
000003f0: 1e85 d8bc 76be 663b c5e7 2d3c a9bc a73c

conv1.conv2d.bias f4 [32]
0.0014063327 -0.101654336 0.04875211 0.10487646 0.041912787 0.040739734 0.09892735 -0.08688327
-0.10703217 0.16319339 0.00015462832 0.039186474 0.10091893 0.18480647 0.03913747 0.082966655
-0.18741849 0.0009019676 0.028887419 0.083171286 -0.0020383026 0.010684542 0.035081435 0.03872417
-0.044723216 -0.12470369 -0.019370608 0.15746993 -0.1334318 0.13877463 -0.08180715 0.019524947
00000000: b254 b83a 2630 d0bd 4bb0 473d 78c9 d63d
00000010: beac 2b3d b5de 263d 6c9a ca3d dbef b1bd
00000020: af33 dbbd 2b1c 273e b923 2239 ff81 203d
00000030: 95ae ce3d e83d 3d3e 9d4e 203d 6cea a93d
00000040: a2ea 3fbe 0572 6c3a 4fa5 ec3c b555 aa3d
00000050: 0b95 05bb 380e 2f3c 8db1 0f3d 3c9d 1e3d
00000060: b12f 37bd a664 ffbd 1caf 9ebc cc3f 213e
00000070: 59a2 08be f01a 0e3e 828a a7bd c8f2 9f3c

CNext_Block2.gamma f4 [32]
0.01233989 0.04192337 -0.025742292 0.01405182 -0.011445522 0.025009902 0.010030542 -0.01790098
0.08481236 0.022769013 0.020789975 -0.009456172 -0.007993481 -0.0021542024 0.029044488 0.012447468
0.1101637 0.039431363 -0.01209695 -0.024595112 0.034065377 -0.008148339 -0.013029191 -0.008581954
0.026588673 -0.01033104 -0.06904354 -0.0069036838 0.051195934 -0.04191413 -0.01427558 0.033556364
00000000: 402d 4a3c d7b7 2b3d 80e1 d2bc 9b39 663c
00000010: 0086 3bbc 91e1 cc3c 2457 243c 13a5 92bc
00000020: 1ab2 ad3d 1586 ba3c bd4f aa3c 0fee 1abc
00000030: 17f7 02bc 852d 0dbb b5ee ed3c 77f0 4b3c
00000040: 829d e13d c882 213d 4932 46bc b07b c9bc
00000050: 2388 0b3d 9c80 05bc 6378 55bc 539b 0cbc
00000060: 7dd0 d93c 8643 29bc b366 8dbd 4c38 e2bb
00000070: d4b2 513d 27ae 2bbd 1fe4 69bc 6672 093d

CNext_Block2.dwconv.weight f4 [32, 1, 7, 7]
-0.04466901 0.036069717 -0.0041525355 -0.009269082 0.032045327 0.036831424 -0.022375334 -0.03689128
0.00693906 -0.021172764 0.018436735 0.050456718 0.10623073 0.015654432 -0.02850915 -0.022494681
0.034255918 0.018002076 -0.050357312 0.041679632 -0.0120895235 0.0024563298 0.0377187 0.043165512
-0.09480536 0.052357282 0.012884404 -0.036209174 -0.045764163 -0.0084249675 0.05044036 -0.06995529
0.026440758 0.017103637 -0.009543481 0.00022142229 0.012301407 0.0022871941 0.03626425 0.01154389
0.022388812 -0.029723441 -0.026910966 0.026800107 -0.027030699 0.06731672 0.03622652 0.03640919
-0.012065195 0.0044365297 -0.034826547 0.03865044 -0.005195852 -0.019525036 0.029000748 0.014212522
-0.0029596575 0.01707196 -0.001397004 0.021397933 0.016575675 -0.010504974 0.018417617 -0.016209785
0.041959636 -0.0026877504 0.00095108076 0.020817738 0.0040746327 0.05021579 -0.0069833854 0.00053947594
0.0141473785 -0.010627767 -0.010414584 0.041308664 -0.016132062 -0.005546709 -0.0022155626 -0.012357545
-0.00024036043 -0.019898267 0.008701059 -0.032957565 0.028171362 -0.020487675 0.0035774282 -0.0074593127
-7.722836e-06 -0.019024136 -0.007445913 0.00064627256 0.017798802 -0.0246843 -0.031202896 0.030655144
-0.026208963 -0.010292986 0.021648945 -0.012849252 0.0061267037 0.03194646 -0.029752595 -0.048726592
-0.0030756313 0.023790574 -0.011448102 -0.009849365 0.016396254 -0.007802705 -0.027601944 0.023214767
0.0009950403 -0.009252509 -0.004666428 -0.0263537 -0.010726079 -0.009308711 0.014633277 0.044169426
-0.009127628 0.030657474 0.024023285 -0.030600445 -0.01020082 0.0026910983 -0.021431357 0.013351033
-0.019188205 -0.021528888 0.009464756 0.022205062 -0.009808861 0.01517252 0.025331976 0.019415334
0.020577142 0.020020735 0.0003928071 -0.014097341 0.032214917 0.0058228206 0.03779014 0.021745346
-0.012832357 0.06655554 0.03133155 0.00019849007 -0.018061213 0.032599334 -0.041947655 0.0033619725
0.025480466 0.023575775 0.0016208001 0.02015971 -0.011636082 -0.030004526 0.00890882 -0.006023978
-0.0004969246 0.02052271 0.024736736 -0.007829 -0.009315807 -0.034293387 -0.0013291124 0.026583847
0.011724081 0.032666437 0.005456554 0.0015287445 0.0054895054 -0.01176893 0.025965547 0.038711805
-0.012288006 0.001731755 0.018095719 0.018363466 -0.0015421546 0.045704424 -0.0008868375 0.04674767
-0.05020772 -0.010490642 0.005375022 0.008992379 0.0070198798 0.03796842 -0.0084512625 0.0053894403
-0.05674227 0.008630359 0.03209508 0.028514173 -0.026083933 -0.01208146 0.012884089 0.04853019
0.0076910704 -0.018564785 0.0036642118 0.014885558 -0.00018846188 0.046348084 0.01336685 0.008258703
-0.0019164695 -0.039272636 -0.03980999 -0.02210015 0.009999184 0.029025352 -0.039515957 0.05463844
-0.018784106 -0.015903443 -0.01865715 -0.058166433 0.027052157 -0.013184551 -0.018719431 0.0017268948
-0.01968237 -0.0059971 0.041226663 -0.08678201 -0.020327516 -0.013857959 -0.025065992 -0.013144326
-0.012453491 0.02402582 -0.026721084 -0.0069985157 0.013860539 -0.014668739 0.004981594 -0.0064020995
-0.004242767 0.026488876 0.025151348 0.047732666 0.007265113 0.03914411 -0.00021657038 0.009106324
0.038420666 -0.016508559 -0.0092437705 0.018450828 0.029996835 -0.022430193 -0.017582381 -0.033580855
00000000: daf6 36bd d7bd 133d fe11 88bb 59dd 17bc
00000010: f641 033d 8cdc 163d 7a4c b7bc 501b 17bd
00000020: 0e61 e33b 8172 adbc a308 973c b4ab 4e3d
00000030: 7f8f d93d b93d 803c 058c e9bc c446 b8bc
00000040: ef4f 0c3d 1779 933c 7843 4ebd 43b8 2a3d
00000050: 2313 46bc 60fa 203b ec7e 1a3d 52ce 303d
00000060: 5029 c2bd 9774 563d 1b19 533c 1250 14bd
00000070: 3473 3bbd e008 0abc 8d9a 4e3d b844 8fbd
00000080: 4a9a d83c ed1c 8c3c 435c 1cbc 982d 6839
00000090: d78b 493c c0e4 153b d289 143d 9622 3d3c
000000a0: be68 b73c 937e f3bc 6374 dcbc e68b db3c
000000b0: 7c6f ddbc 59dd 893d 4262 143d ce21 153d
000000c0: 18ad 45bc 4f60 913b 48a6 0ebd ec4f 1e3d
000000d0: f741 aabb f8f2 9fbc fa92 ed3c a3db 683c
000000e0: d0f6 41bb 7fda 8b3c ad1b b7ba b84a af3c
000000f0: b6c9 873c 0e1d 2cbc 8be0 963c 62ca 84bc
00000100: dedd 2b3d f824 30bb f351 793a f689 aa3c
00000110: 7f84 853b 12af 4d3d e2d4 e4bb 9e6b 0d3a
00000120: 68ca 673c 1620 2ebc eea1 2abc 4633 293d
00000130: 6327 84bc 2bc1 b5bb f932 11bb 4d77 4abc
00000140: 4309 7cb9 b101 a3bc e38e 0e3c 83fe 06bd
00000150: a1c7 e63c c5d5 a7bc 4973 6a3b 406d f4bb
00000160: 5491 01b7 81d8 9bbc d8fc f3bb 9e6a 293a
00000170: cbce 913c bb36 cabc 379d ffbc 7f20 fb3c
00000180: 2eb4 d6bc eaa3 28bc 2159 b13c ab85 52bc
00000190: 84c2 c83b 4bda 023d b7bb f3bc 8995 47bd
000001a0: 8890 49bb 73e4 c23c d290 3bbc 3b5f 21bc
000001b0: 7051 863c d5ad ffbb 791d e2bc e52c be3c
000001c0: 036c 823a d697 17bc d6e8 98bb b7e3 d7bc
000001d0: 70bc 2fbc 9083 18bc 6ac0 6f3c 00eb 343d
000001e0: 0c8c 15bc 6225 fb3c 7bcc c43c c9ad fabc
000001f0: 5721 27bc 235d 303b d090 afbc 4bbe 5a3c
00000200: 9530 9dbc 5a5d b0bc 1012 1b3c 64e7 b53c
00000210: 58b5 20bc 2996 783c 0185 cf3c e80c 9f3c
00000220: 6591 a83c 8602 a43c adf1 cd39 89f8 66bc
00000230: caf3 033d 5ccd be3b d5c9 1a3d 4c23 b23c
00000240: ce3e 52bc 454e 883d 8355 003d c621 5039
00000250: 1cf5 93bc e186 053d 4ed1 2bbd 8a54 5c3b
00000260: 69bc d03c fc21 c13c 0771 d43a fa25 a53c
00000270: 44a5 3ebc 0dcc f5bc 4df6 113c ca64 c5bb
00000280: 0c44 02ba 3e1f a83c b2a4 ca3c 3545 00bc
00000290: 54a1 18bc 3977 0cbd 9d35 aeba 5ec6 d93c
000002a0: 5c16 403c 3ecd 053d e4cc b23b 2760 c83a
000002b0: 4fe1 b33b 78d2 40bc b3b5 d43c 4590 1e3d
000002c0: a253 49bc 0efc e23a 793d 943c fb6e 963c
000002d0: 1f22 caba 9034 3b3d a87a 68ba 7c7a 3f3d
000002e0: 9ca6 4dbd f1e0 2bbc f420 b03b c554 133c
000002f0: 0507 e63b c684 1b3d 2a77 0abc e799 b03b
00000300: 956a 68bd 5966 0d3c 2176 033d 8e96 e93c
00000310: f9ad d5bc 51f1 45bc c917 533c 98c7 463d
00000320: 6005 fc3b 2d15 98bc 4623 703b 8ee2 733c
00000330: da9d 45b9 7dd7 3d3d a200 5b3c 834f 073c
00000340: 0c32 fbba 58dc 20bd cd0f 23bd 600b b5bc
00000350: 9ed3 233c 93c6 ed3c 7cdb 21bd 8fcc 5f3d
00000360: 20e1 99bc f047 82bc e1d6 98bc ed3f 6ebd
00000370: 7c9c dd3c 0404 58bc 7e59 99bc f958 e23a
00000380: ec3c a1bc 5283 c4bb 4add 283d c4ba b1bd
00000390: e485 a6bc 7e0c 63bc 3257 cdbc 4d5b 57bc
000003a0: ba09 4cbc ccd1 c43c 2de6 dabc ce53 e5bb
000003b0: 5017 633c 2755 70bc a43c a33b b4c8 d1bb
000003c0: e906 8bbb 33ff d83c 330a ce3c 5483 433d
000003d0: 2f10 ee3b 9355 203d 2b17 63b9 b132 153c
000003e0: fd5e 1d3d f53c 87bc 2f73 17bc 3126 973c
000003f0: ecbb f53c 86bf b7bc ed08 90bc 148c 09bd

CNext_Block2.dwconv.bias f4 [32]
-0.005765815 -0.008801828 -0.10523524 -0.0024773667 -0.084554255 0.012823961 0.14672862 -0.057880647
0.019273303 -0.04388999 -0.11940056 0.09264895 0.016997317 -0.04854879 -0.103723675 -0.038526796
0.037598986 0.10579669 0.08552804 0.045703754 0.021678403 -0.09762366 0.05658052 0.06525178
-0.010807869 0.044283237 -0.055161096 0.07246653 -0.12546992 0.020614188 0.10886222 0.062214572
00000000: 29ef bcbb 8b35 10bc 9385 d7bd 515b 22bb
00000010: c82a adbd 971b 523c 0740 163e 4214 6dbd
00000020: 0ce3 9d3c fdc5 33bd 4888 f4bd bcbe bd3d
00000030: f53d 8b3c 19db 46bd 146d d4bd 46ce 1dbd
00000040: 6501 1a3d efab d83d 5329 af3d dc33 3b3d
00000050: e896 b13c eaee c7bd fac0 673d baa2 853d
00000060: 7d13 31bc 5762 353d 9af0 61bd 5569 943d
00000070: 307b 00be 16df a83c 28f3 de3d b5d4 7e3d

CNext_Block2.norm.weight f4 [32]
1.0486436 0.9348051 1.0001049 1.0163144 1.0133998 1.1286969 0.9933446 0.9953839
0.9906694 1.0014769 1.0096538 1.0330939 1.0285553 1.0011429 0.9947226 0.9911956
1.0264454 1.0021565 1.0174011 1.0293776 1.0249991 1.067557 1.010767 1.0174552
1.0182481 1.0198945 0.98908585 1.0413147 0.99625605 1.0232466 0.99417466 1.0294833
00000000: f439 863f 634f 6f3f 7003 803f 9716 823f
00000010: 16b7 813f 2479 903f d54b 7e3f 7bd1 7e3f
00000020: 839c 7d3f 6530 803f 563c 813f 6c3c 843f
00000030: b3a7 833f 7325 803f 24a6 7e3f ffbe 7d3f
00000040: 9062 833f aa46 803f 333a 823f a5c2 833f
00000050: 2c33 833f b5a5 883f d060 813f f93b 823f
00000060: f455 823f e78b 823f bb34 7d3f cd49 853f
00000070: a30a 7f3f bff9 823f 3b82 7e3f 1cc6 833f

CNext_Block2.norm.bias f4 [32]
-0.0033229191 -0.027069114 -0.0078086816 0.0060165487 -0.0076948 0.004644584 0.01576247 -0.015322035
0.008111845 -0.0055727465 -0.01909183 -0.02459549 -0.013092998 -0.0150885675 -0.010015881 0.009081625
0.027530089 -0.008775934 0.010154044 -0.010090849 0.0089586815 -0.024735952 0.007630604 0.01678369
-0.0029670494 0.02969043 -0.0018662413 0.0006502525 -0.0052875252 0.013503339 0.005432171 0.001916292
00000000: 55c5 59bb 0cc0 ddbc f8df ffbb 7826 c53b
00000010: a924 fcbb 9831 983b 4c20 813c 4609 7bbc
00000020: 8be7 043c 969b b6bb 7866 9cbc 7b7c c9bc
00000030: 0484 56bc 0a36 77bc a619 24bc 19cb 143c
00000040: c886 e13c efc8 0fbc 265d 263c 1754 25bc
00000050: 6fc7 123c 0da3 cabc 250a fa3b f37d 893c
00000060: d472 42bb 5839 f33c ab9c f4ba b575 2a3a
00000070: fa42 adbb 1c3d 5d3c 5a00 b23b 172c fb3a

CNext_Block2.pwconv1.weight f4 [128, 32]
0.15911391 -0.037826046 0.077587225 -0.070805706 0.09076266 0.29587212 -0.015214117 -0.12001943
0.14046499 -0.048729956 0.15093386 -0.04438312 0.041987028 0.13555515 0.12365357 0.02970191
-0.00080367655 -0.14948249 0.12705997 -0.047390167 0.07111464 -0.21272884 -0.011282847 -0.15498047
0.06500988 -0.028547391 0.074792646 -0.040973667 -0.112675376 0.0273557 0.19955868 -0.18432958
-0.1376075 0.016982343 -0.05106144 -0.026715932 -0.1585271 -0.2383126 0.014191232 -0.07737702
0.020960597 -0.1376753 0.032728747 -0.026479227 0.00022541126 0.05064419 -0.023378829 0.1661752
-0.15377393 -0.107834674 0.12268022 -0.07120772 -0.082605004 0.024966119 -0.007310316 0.16039717
0.16182813 -0.043558113 0.08174588 0.07294546 -0.054283343 0.14679682 0.0029868342 0.18132044
-0.011000044 0.086024724 -0.06160536 0.046879154 0.074105166 -0.07150836 -0.16068123 -0.089228414
0.025941376 -0.097512856 -0.08053131 -0.10220193 0.093390316 0.016871395 -0.16539384 -0.14836504
-0.039144382 0.16397116 -0.078135625 -0.13934848 0.07877773 0.021903105 0.13429366 -0.07688199
-0.021202004 0.052182984 0.10713621 0.1621581 -0.026159635 -0.010923503 0.16814396 0.13134034
0.15435606 0.14137504 -0.13447665 -0.021943588 -0.16254936 0.05827146 0.03833468 -0.061263833
-0.044713967 -0.045833778 0.14179975 0.1583079 -0.16888145 -0.02728615 -0.12944537 0.09407967
-0.16601904 -0.060712792 -0.16450623 0.12234493 0.124714725 0.15260525 -0.020899378 -0.12628454
0.09254202 0.018469887 -0.017908404 0.0076979483 -0.17234917 -0.055214453 -0.15763089 0.1564335
0.17625454 -0.1610187 -0.05065461 -0.18658078 -0.14651805 -0.047714837 -0.035621386 0.11214068
-0.14496134 0.15408395 -0.03468734 -0.067908175 -0.18821909 -0.026244327 0.10757798 -0.106688805
0.059541386 0.14840531 0.08848668 -0.15570647 0.09979734 0.010622675 -0.046037495 0.15109351
0.1556886 0.12696707 0.1741104 0.09992203 0.120283775 -0.1340381 0.06650266 -0.08065296
0.10039751 0.0132103115 0.13496439 -0.0464734 -0.13726027 0.118857585 -0.029273689 -0.021973759
0.058140095 -0.015796479 0.12295891 -0.056315918 -0.025390388 -0.057616584 -0.12576844 0.15591736
0.17497341 -0.0728039 0.14721034 0.16983923 -0.042486295 -0.04731606 -0.16113038 -0.12883337
0.12751499 -0.043342028 -0.016487971 0.060647633 0.00036830566 0.16880023 0.14308627 -0.16787426
0.09774106 -0.00025102386 -0.14908096 -0.043947145 -0.055417717 0.08186281 0.13728319 -0.11935037
-0.04072716 0.17752294 -0.07878642 -0.14680743 -0.03143171 0.035077795 -0.1345971 -0.082759164
0.021794487 0.067960694 -0.014566365 0.10855888 0.12059025 0.02737264 -0.0004971703 -0.12885202
-0.11214342 -0.12936017 0.07374653 0.041283578 -0.0012658022 0.08322076 -0.054107532 0.04091494
-0.06747523 -0.00034192344 -0.025454232 0.05444994 0.09747955 -0.03257054 -0.08493983 0.13815878
0.013045528 0.07790206 -0.011295223 0.18557025 -0.04625257 0.08375164 -0.084341794 -0.018188866
0.10617504 -0.019568855 -0.14269248 0.106749125 -0.09193043 0.13060631 0.062368475 -0.045730185
0.13789524 0.051999815 0.04675611 -0.00020349791 0.14940542 0.07475172 -0.1749625 -0.07979785
00000000: c2ee 223e 7cef 1abd 0de6 9e3d 9502 91bd
00000010: c6e1 b93d 8d7c 973e a244 79bc bfcc f5bd
00000020: 0ed6 0f3e 1099 47bd 688e 1a3e 13cb 35bd
00000030: 97fa 2b3d f8ce 0a3e 153e fd3d 6c51 f33c
00000040: d2ad 52ba f011 19be 021c 023e 311c 42bd
00000050: 8da4 913d 97d5 59be b1db 38bc 33b3 1ebe
00000060: e623 853d 38dc e9bc e32c 993d 01d4 27bd
00000070: 59c2 e6bd 1019 e03c 1c59 4c3e e5c0 3cbe
00000080: fbe8 0cbe 8e1e 8b3c cd25 51bd 5fdb dabc
00000090: ee54 22be 3808 74be 5782 683c d877 9ebd
000000a0: 8fb5 ab3c c1fa 0cbe 940e 063d f7ea d8bc
000000b0: 605c 6c39 4870 4f3d f584 bfbc d529 2a3e
000000c0: ea76 1dbe 6dd8 dcbd c43f fb3d 5ad5 91bd
000000d0: d02c a9bd bf85 cc3c 608b efbb 283f 243e
000000e0: 46b6 253e fe69 32bd 626a a73d 6e64 953d
000000f0: 3658 5ebd e851 163e c3be 433b 11ac 393e
00000100: 8739 34bc bb2d b03d e755 7cbd 5b04 403d
00000110: 73c4 973d fa72 92bd 9f89 24be 63bd b6bd
00000120: 0283 d43c d2b4 c7bd 99ed a4bd 3f4f d1bd
00000130: 6c43 bf3d e135 8a3c 015d 29be 01ed 17be
00000140: dc55 20bd 0ee8 273e 9205 a0bd 5eb1 0ebe
00000150: 3856 a13d 246e b33c 4784 093e 4e74 9dbd
00000160: d3af adbc d3bd 553d 3b6a db3d c60c 263e
00000170: bb4c d6bc 7ef8 32bc ee2d 2c3e 157e 063e
00000180: 840f 1e3e 9ec4 103e 3fb4 09be 0ac3 b3bc
00000190: 5773 26be 0eae 6e3d d304 1d3d c9ef 7abd
000001a0: fe25 37bd 33bc 3bbd f433 113e 771b 223e
000001b0: 42ef 2cbe 3487 dfbc 548d 04be d8ac c03d
000001c0: e500 2abe faad 78bd 5274 28be fb8f fa3d
000001d0: 6f6a ff3d 8d44 1c3e 2c35 abbc bc50 01be
000001e0: ac86 bd3d 294e 973c a5b4 92bc 123f fc3b
000001f0: 4d7c 30be 8d28 62bd fe69 21be 1a30 203e
00000200: 127c 343e 16e2 24be 357b 4fbd 080f 3fbe
00000210: d408 16be a270 43bd bbe7 11bd 03aa e53d
00000220: bf70 14be 2fc8 1d3e 5014 0ebd 7113 8bbd
00000230: 81bc 40be 58fe d6bc d851 dc3d a97f dabd
00000240: abe1 733d 90f7 173e 8138 b53d 8471 1fbe
00000250: 8c62 cc3d ba0a 2e3c d091 3cbd 42b8 1a3e
00000260: d56c 1f3e a803 023e ff49 323e eca3 cc3d
00000270: 5757 f63d 4941 09be 8c32 883d 612d a5bd
00000280: 369d cd3d 1070 583c 1b34 0a3e e45a 3ebd
00000290: f58d 0cbe 9b6b f33d 60cf efbc 5002 b4bc
000002a0: 4f24 6e3d 9e67 81bc e2d1 fb3d 85ab 66bd
000002b0: 81ff cfbc 5eff 6bbd 71c9 00be cda8 1f3e
000002c0: 3b2c 333e 361a 95bd 4fbe 163e 56ea 2d3e
000002d0: 1c06 2ebd 7cce 41bd 5dff 24be e5ec 03be
000002e0: 4a93 023e 6987 31bd c811 87bc a769 783d
000002f0: 2619 c139 f8d9 2c3e 3585 123e 3be7 2bbe
00000300: 772c c83d da9b 83b9 aea8 18be ec01 34bd
00000310: b0fd 62bd b0a7 a73d f793 0c3e f76d f4bd
00000320: 86d1 26bd 93c8 353e c65a a1bd b054 16be
00000330: 89be 00bd bcad 0f3d d2d3 09be a37d a9bd
00000340: 5a8a b23c fa2e 8b3d c3a7 6ebc 1e54 de3d
00000350: 05f8 f63d 963c e03c 8954 02ba c9f1 03be
00000360: 73ab e5bd fe76 04be 6c08 973d f818 293d
00000370: 46e9 a5ba a56f aa3d dc9f 5dbd 6d96 273d
00000380: 7430 8abd 3044 b3b9 6585 d0bc e606 5f3d
00000390: 5ca3 c73d b068 05bd eff4 adbd 7f79 0d3e
000003a0: e9bc 553c 1d8b 9f3d 990f 39bc 2106 3e3e
000003b0: 5673 3dbd fb85 ab3d 64bb acbd d100 95bc
000003c0: 4d72 d93d dd4e a0bc fa1d 12be 499f da3d
000003d0: 0546 bcbd a9bd 053e 1676 7f3d 934f 3bbd
000003e0: 6934 0d3e c2fd 543d 5683 3f3d 0e62 55b9
000003f0: bcfd 183e 6e17 993d 5f29 33be 0e6d a3bd

CNext_Block2.pwconv1.bias f4 [128]
0.138282 -0.15213397 -0.14314227 -0.071672745 0.03162206 0.17544468 0.17117909 -0.00617383
0.10936321 0.1424266 -0.14091037 -0.03846979 -0.042077884 0.15621458 -0.10206285 -0.04811026
0.096329175 0.1656022 -0.013634355 0.11235751 -0.038100544 0.041004866 -0.1474636 -0.046408977
0.020199679 -0.17133728 0.08298432 -0.043698277 0.13978405 0.19872506 -0.07686684 -0.009156214
0.10580964 0.15565394 0.05691554 0.024655947 0.11294425 -0.07772531 0.048962615 0.10422466
0.0365024 0.063485995 0.08454553 0.12372575 -0.16929914 0.114235684 -0.09010622 -0.06968627
0.057251032 0.15719089 0.010462734 -0.039463807 0.09409039 0.036460284 -0.10859026 0.070166364
-0.15870762 -0.04653428 -0.012602801 0.052211117 -0.13593575 0.0032812993 -0.13698703 -0.024558196
0.01214789 -0.06920917 0.0065823877 -0.0006331799 0.15008776 -0.06876677 -0.047152296 0.15302412
-0.027076183 0.1494507 0.15076421 -0.021077143 -0.11786364 0.015601773 -0.14491339 -0.15606977
-0.15662271 0.07129111 0.010159091 0.059913673 0.14629334 -0.027107343 -0.11176561 0.1259939
-0.12238817 -0.10092088 -0.04335814 0.113341935 0.15098928 0.111795954 -0.107969604 0.038436674
-0.06395037 0.0058161304 0.044845175 -0.052526228 0.19723377 -0.11330488 -0.14334118 0.07741325
0.12377252 0.024645321 -0.06118689 0.16736247 -0.0473978 -0.04188142 -0.056832522 0.0889255
0.15845518 0.10367868 -0.05072861 -0.09470402 0.16933206 -0.093194604 0.16231003 -0.066976495
0.13771333 -0.05109893 -0.0072643394 0.055391956 -0.0679847 -0.047378134 -0.08375425 0.13161291
00000000: cc99 0d3e 02c9 1bbe e393 12be 29c9 92bd
00000010: 2286 013d c5a7 333e 9249 2f3e d74d cabb
00000020: d2f9 df3d 47d8 113e cf4a 10be 8092 1dbd
00000030: dc59 2cbd b7f6 1f3e 5406 d1bd 440f 45bd
00000040: 3b48 c53d a093 293e a162 5fbc b21b e63d
00000050: 510f 1cbd b8f4 273d b300 17be 5717 3ebd
00000060: cc79 a53c 0a73 2fbe aff3 a93d f7fc 32bd
00000070: 8d23 0f3e 957e 4b3e 5d6c 9dbd f203 16bc
00000080: b9b2 d83d bf63 1f3e 4520 693d 45fb c93c
00000090: 514f e73d 732e 9fbd 068d 483d bd73 d53d
000000a0: 8a83 153d f204 823d 3526 ad3d ed63 fd3d
000000b0: c15c 2dbe 66f4 e93d 9c89 b8bd adb7 8ebd
000000c0: 0f80 6a3d a6f6 203e e36b 2b3c cda4 21bd
000000d0: 76b2 c03d 6157 153d 9264 debd 62b3 8f3d
000000e0: 4084 22be bb9a 3ebd fb7b 4ebc 53db 553d
000000f0: be32 0bbe 110b 573b 5446 0cbe 452e c9bc
00000100: f207 473c 8abd 8dbd 12b1 d73b fcfb 25ba
00000110: 9bb0 193e 98d5 8cbd c422 41bd 5bb2 1c3e
00000120: dfce ddbc 9b09 193e ef61 1a3e f9a9 acbc
00000130: 7e62 f1bd 949e 7f3c 2d64 14be c1d0 1fbe
00000140: b461 20be 1301 923d 5172 263c 0a68 753d
00000150: eccd 153e 3810 debc 5ee5 e4bd 8b04 013e
00000160: a6a6 fabd 9baf cebd 4e98 31bd d11f e83d
00000170: ef9c 1a3e 47f5 e43d 2b1f ddbd c66f 1d3d
00000180: 69f8 82bd 3d95 be3b 93af 373d be25 57bd
00000190: a6f7 493e 640c e8bd 08c8 12be d78a 9e3d
000001a0: 727c fd3d fce4 c93c 1b9f 7abd 1161 2b3e
000001b0: 3224 42bd da8b 2bbd 38c9 68bd 931e b63d
000001c0: 1342 223e 7d55 d43d cec8 4fbd 2ef4 c1bd
000001d0: 6265 2d3e d0dc bebd 9a34 263e f92a 89bd
000001e0: b904 0d3e 1d4d 51bd b209 eebb ade2 623d
000001f0: 903b 8bbd 930f 42bd 5987 abbd 89c5 063e

CNext_Block2.pwconv2.weight f4 [32, 128]
-0.038930856 0.087806255 -0.06310081 0.08318801 -0.0764498 0.028493037 -0.02650793 0.025074644
-0.0050818236 0.006160552 -0.10708904 0.038937822 -0.01955898 -0.07598016 -0.10669648 -0.012392269
0.061167162 -0.06953642 -0.084486224 0.014220318 0.018677814 0.0068899896 -0.05108718 0.0014704984
0.022488182 -0.030040506 0.025386037 0.0010029458 -0.060097393 0.031340063 -0.028392714 -0.008979188
0.01777916 0.027810704 -0.040225398 0.07910082 0.026068566 0.058164228 0.06365242 0.047802933
0.039979547 -0.0865687 0.08450766 0.092719994 0.021118622 0.049987968 0.00091608416 0.0007727684
0.0024697012 -0.029326666 0.0469979 -0.053581994 -0.053639073 -0.008317784 -0.06280471 -0.07827367
0.058249157 -0.0789893 -0.014325837 -0.07054974 0.020534726 0.055027194 -0.03892613 0.058094922
-0.062231172 -0.100387536 -0.012543531 0.008979336 0.037306797 0.011829377 -0.013453877 -0.014737279
0.09822949 0.022547944 0.02452314 0.04270628 -0.05946383 0.085756816 -0.09139544 0.042823806
-0.032687698 0.017935202 -0.04966333 -0.04291174 -0.026699316 0.016571743 0.08058093 -0.0006302631
0.05752158 0.0054094377 -0.022604352 0.053249672 0.0806698 -0.07268112 0.058020733 0.078243464
0.047723345 0.052574057 -0.041246153 -0.11612891 -0.022993218 -0.12281197 0.05779271 0.04054493
0.0070214863 0.07762852 -0.08204046 -0.053756926 -0.024281569 -0.032129917 -0.056002878 0.006767787
0.05137836 0.09703519 -0.056987196 -0.0029844714 -0.0010057542 -0.037928607 0.061875116 -0.049315684
-0.09188987 0.08775836 0.067403354 0.037132937 0.020423496 0.016612453 0.008283665 0.030287625
0.004900559 -0.06374177 0.01320693 -0.037525296 0.012620915 -0.04115703 0.018269356 0.044975612
-0.05094106 -0.011480528 -0.03964487 0.09440127 -0.031968646 -0.06760772 -0.12778209 0.016296672
-0.0011944554 -0.011886907 0.0383217 -0.0039985892 0.07597413 0.03029293 -0.05278843 -0.020701075
-0.07914585 -0.0035225865 0.087933436 0.011895849 -0.06219556 0.0009997411 -0.09506482 0.07065927
0.1006244 0.05437489 0.049351413 0.075263426 -0.002876771 0.044031374 0.031190194 0.017639523
0.06541513 -0.0128070805 0.0055334843 -0.07805277 -0.0035548755 0.034210533 -0.046519402 0.07692507
-0.015567249 -0.06307721 -0.09840152 -0.056066 0.008370453 -0.03859118 -0.008591882 0.04635473
-0.045349933 -0.06946906 0.0025477149 -0.052845355 0.07770838 -0.056868058 -0.03842422 -0.044098634
-0.069594376 -0.09340199 -0.03470451 0.06586896 -0.074901104 -0.07820636 0.000688942 0.034096707
-0.006474167 -0.08716355 0.02963636 0.04291517 0.0039161895 -0.013334493 0.0600396 -0.0654547
-0.052319247 0.0142498175 0.03744746 0.036177836 -0.055371165 0.011885086 -0.0073049134 0.016388573
0.060612846 0.09659611 0.05501317 -0.018955551 0.10619021 0.037167486 0.06468438 0.124199435
-0.043052964 -0.08085528 0.08805665 -0.0049899984 0.12044179 0.015396006 -0.00942223 -0.06768024
-0.06062655 0.063389435 -0.08749275 0.070976004 0.086308636 -0.09232473 0.03958 -0.022056812
0.040416103 0.042562783 -0.02739223 -0.13554873 0.083513595 0.013738403 0.07175407 -0.010822686
-0.07544366 0.074588604 -0.08746492 -0.07397471 -0.020681014 0.06471502 0.057360224 -0.032129534
00000000: f675 1fbd c4d3 b33d ff3a 81bd 7a5e aa3d
00000010: b691 9cbd 3b6a e93c 2927 d9bc 5769 cd3c
00000020: 6d85 a6bb 75de c93b 8051 dbbd 447d 1f3d
00000030: 273a a0bc 7c9b 9bbd af83 dabd f208 4bbc
00000040: 6b8a 7a3d 1c69 8ebd 1d07 adbd 56fc 683c
00000050: 3702 993c 6cc5 e13b ca40 51bd bdbd c03a
00000060: 2339 b83c 8217 f6bc 61f6 cf3c 4775 833a
00000070: af28 76bd 705e 003d d697 e8bc 721d 13bc
00000080: 9aa5 913c 46d3 e33c 63c3 24bd 9cff a13d
00000090: bf8d d53c 9d3d 6e3d 335c 823d 02cd 433d
000000a0: 98c1 233d ee4a b1bd 5a12 ad3d fbe3 bd3d
000000b0: f600 ad3c 2fc0 4c3d 5e25 703a 9c93 4a3a
000000c0: b6da 213b 7a3e f0bc df80 403d cb78 5bbd
000000d0: a5b4 5bbd 5147 08bc c19f 80bd f24d a0bd
000000e0: ab96 6e3d 24c5 a1bd eab6 6abc 627c 90bd
000000f0: 7138 a83c 3264 613d 0171 1fbd f1f4 6d3d
00000100: 1de6 7ebd fb97 cdbd 6283 4dbc 111e 133c
00000110: 03cf 183d 01d0 413c a66d 5cbc a174 71bc
00000120: 8b2c c93d 77b6 b83c c1e4 c83c c8ec 2e3d
00000130: 5890 73bd 45a1 af3d 882d bbbd 0468 2f3d
00000140: 89e3 05bd d8ec 923c c76b 4bbd 38c4 2fbd
00000150: 86b8 dabc 77c1 873c 9d07 a53d 3e38 25ba
00000160: c09b 6b3d a741 b13b c32c b9bc 541c 5a3d
00000170: 3536 a53d d7d9 94bd 26a7 6d3d 1c3e a03d
00000180: 8e79 433d e557 573d baf1 28bd fed4 edbd
00000190: 465c bcbc d884 fbbd 0cb8 6c3d 7112 263d
000001a0: 7f14 e63b b4fb 9e3d d404 a8bd 3930 5cbd
000001b0: 24ea c6bc a99a 03bd 4663 65bd 50c4 dd3b
000001c0: 1d72 523d 63ba c63d 686b 69bd 1f97 43bb
000001d0: 83d3 83ba 075b 1bbd c370 7d3d 3eff 49bd
000001e0: c230 bcbd a8ba b33d c50a 8a3d b518 183d
000001f0: 2d4f a73c d716 883c 36b8 073c c11d f83c
00000200: de94 a03b 0c8b 82bd e161 583c 20b4 19bd
00000210: f4c7 4e3c 4694 28bd 9ea9 953c 5938 383d
00000220: 93a7 50bd d318 3cbc a962 22bd 7455 c13d
00000230: 8ef1 02bd eb75 8abd 4fd9 02be 9980 853c
00000240: 468f 9cba 4dc1 42bc 37f7 1c3d 9906 83bb
00000250: 5398 9b3d e128 f83c ae38 58bd 4d95 a9bc
00000260: 3817 a2bd 32db 66bb 7216 b43d cfe6 423c
00000270: c6c0 7ebd bf09 833a 58b1 c2bd cfb5 903d
00000280: 2a14 ce3d 34b8 5e3d b524 4a3d b623 9a3d
00000290: 3588 3cbb 3e5a 343d 9482 ff3c c380 903c
000002a0: 5ef8 853d cad4 51bc 3b52 b53b 21da 9fbd
000002b0: eaf8 68bb 5820 0c3d 218b 3ebd e48a 9d3d
000002c0: c60d 7fbc a02e 81bd bc86 c9bd 76a5 65bd
000002d0: 3924 093c c911 1ebd f7c4 0cbc 75de 3d3d
000002e0: dac0 39bd cb45 8ebd 90f7 263b 5f74 58bd
000002f0: 9225 9f3d 7bee 68bd b762 1dbd c5a0 34bd
00000300: 7f87 8ebd 8b49 bfbd 5126 0ebd 4ee6 863d
00000310: c065 99bd a82a a0bd 1d9a 343a fda8 0b3d
00000320: 4025 d4bb ce82 b2bd f4c7 f23c d1c7 2f3d
00000330: 6153 803b eb78 5abc 15ec 753d 1d0d 86bd
00000340: b54c 56bd 1178 693c 8262 193d 362f 143d
00000350: e0cc 62bd aab9 423c 0e5e efbb 5441 863c
00000360: 2d45 783d 2ed4 c53d 7d55 613d ac48 9bbc
00000370: 417a d93d ef3c 183d 3f79 843d 465c fe3d
00000380: 4e58 30bd 7497 a5bd 0b57 b43d 2483 a3bb
00000390: 2faa f63d 883f 7c3c b25f 1abc f09b 8abd
000003a0: 8c53 78bd 52d2 813d 662f b3bd de5b 913d
000003b0: 95c2 b03d bf14 bdbd a31e 223d 7db0 b4bc
000003c0: 5b8b 253d 5056 2e3d ac65 e0bc 49cd 0abe
000003d0: 2d09 ab3d 0a17 613c ccf3 923d a351 31bc
000003e0: 3582 9abd e9c1 983d cf20 b3bd 0e80 97bd
000003f0: 3b6b a9bc 4f89 843d 8ef2 6a3d 429a 03bd

CNext_Block2.pwconv2.bias f4 [32]
0.07459476 0.050558653 -0.053136993 0.02633954 -0.009352905 0.08638847 0.076972306 0.0016536871
0.00683649 -0.05321112 -0.024196733 -0.08845338 0.07574223 0.03560068 -0.060499422 0.03307407
-0.009858451 -0.021117441 -0.031189755 -0.07674623 -0.005859733 -0.012500959 -0.0408699 -0.07155551
0.08748522 -0.02617432 0.019811222 0.08204077 0.0001575753 0.043083776 -0.02460317 -0.019535987
00000000: 23c5 983d 9716 4f3d 2da6 59bd 05c6 d73c
00000010: ed3c 19bc 70ec b03d a8a3 9d3d 88c0 d83a
00000020: a204 e03b e7f3 59bd 3a38 c6bc 0c27 b5bd
00000030: be1e 9b3d 05d2 113d 3ece 77bd ad78 073d
00000040: 5785 21bc 7cfe acbc a881 ffbc 212d 9dbd
00000050: 0103 c0bb d3d0 4cbc 3267 27bd b28b 92bd
00000060: 732b b33d 876b d6bc 254b a23c fe04 a83d
00000070: cc3a 2539 9d78 303d 968c c9bc ef09 a0bc

decoder.0.conv2d.weight f4 [32, 32, 3, 3]
0.02969785 -0.031201122 0.042029757 -0.059386835 -0.037095677 -0.019499818 -0.06714439 -0.06415709
0.037940394 -0.023618592 0.0037621914 -0.025857715 0.026933685 0.014913788 0.015270316 0.044707526
0.019298997 0.021419238 0.014743297 0.033070426 0.018661786 -0.00047595898 -0.032599155 0.006035372
0.024979364 0.018483808 0.026561132 0.016747596 0.0022727572 0.030001177 0.009678364 0.0053862357
0.02353762 0.022429371 0.033800755 0.032059655 -0.039778605 0.0065350737 0.019840723 -0.027227875
-0.021196812 -0.0045725657 0.035224307 -0.0064515336 0.02551239 0.04668971 0.05485579 0.046991676
-0.033576235 0.016952414 -0.021437883 -0.042865735 -0.04414755 0.0010535965 -0.027100341 0.018514674
-0.005920689 0.012877452 -0.011322614 0.030731618 -0.033465244 0.006379791 0.04786939 0.010190108
-0.011073853 -0.0008862916 -0.01698165 -0.019401252 0.03836497 0.04503552 -0.0074411933 0.011492407
-0.026005276 0.027243229 0.024055837 -0.06521164 0.014429078 0.029685665 0.037258722 0.013593478
0.045466557 0.019353488 0.012417893 -0.018040145 -0.018644363 -0.0125851715 0.020751469 0.0065871933
0.033781476 0.008046787 -0.0061971433 0.018773852 -0.0053643747 -0.027069502 -0.009506412 0.0075683203
0.035999227 0.0026017535 0.0057935975 -0.009204887 0.008766769 -0.020357706 -0.02029821 0.0046069724
0.03153582 -0.031477474 -0.000781944 -0.004347494 0.04074491 -0.008874826 0.015456944 -0.007093603
0.031594757 0.010949196 0.017843124 0.0069878963 0.008175915 -0.0073404727 -0.02036999 0.027449943
0.01953851 0.039282657 0.0034639898 -0.015545053 -0.018933658 0.012854667 0.035622247 0.02030396
0.040761836 -0.02149421 -0.016268872 -0.016851068 0.046171963 -0.012922451 -0.012007615 0.003035487
0.018057555 0.016019683 -0.0115502225 -0.040193733 -0.0031054562 -0.0075180326 -0.016389329 0.0076287175
0.025197882 0.01017963 -0.03885226 -0.024276977 0.044172887 0.015770275 0.020242993 -0.01204326
-0.0049560247 -0.02024766 -0.022465581 0.019916557 -0.055368524 -0.017860511 0.031715237 -0.021502323
-0.023149759 -0.0066478807 -0.04680312 -0.016219111 0.0033304507 -0.032657303 -0.051234048 -0.027941553
-0.026109241 0.015139294 0.013722545 0.032300327 0.004121062 0.01299162 -0.042320035 0.00989562
0.007900757 0.007276725 -0.013462372 0.009947121 0.012021238 -0.016337465 -0.014448933 0.021951275
0.011115779 0.020820154 -0.017476909 -0.019240858 -0.00927322 -0.018257948 -0.016223248 -0.025575392
0.019334208 -0.040396724 -0.0019832922 0.036169577 0.01744993 -0.004679027 -0.03824019 0.0046717227
0.015992329 -0.022037588 -0.026110537 0.020712364 0.005649135 0.018256309 0.020518318 -0.022620643
0.045540344 0.025220864 0.045968447 -0.019829724 0.00414005 0.050196853 0.045315005 0.008464715
0.035139043 0.051168893 0.012365528 -0.024260445 0.0060348245 0.042711303 0.03800338 -0.014110045
0.01068082 0.03412116 0.01403719 -0.01843423 -0.0071873367 0.012095846 0.014409582 0.02034565
-0.0054629277 -0.0020854045 0.0022194148 -0.011822612 -0.004768275 0.024808459 -0.00986042 -0.016057761
-0.024155598 0.02372289 0.004776297 0.02260845 -0.016139137 -0.0076313033 -0.020686325 -0.0158778
0.037316427 0.00015369036 0.004396672 0.011313393 -0.0139454 -0.01997516 0.023906266 0.0053768414
00000000: e848 f33c 7f99 ffbc 6527 2c3d 9c3f 73bd
00000010: a3f1 17bd 15be 9fbc ff82 89bd cb64 83bd
00000020: 6367 1b3d c77b c1bc 198f 763b 8fd3 d3bc
00000030: 08a4 dc3c f658 743c 5930 7a3c 3d1f 373d
00000040: ee18 9e3c 6677 af3c df8d 713c db74 073d
00000050: 9ae0 983c 228a f9b9 b186 05bd 5fc4 c53b
00000060: 86a1 cc3c 5b6b 973c bb96 d93c 4132 893c
00000070: 8af2 143b 07c5 f53c 0092 1e3c 057f b03b
00000080: f8d1 c03c cdbd b73c a972 0a3d fc50 033d
00000090: e4ee 22bd 2c24 d63b 0389 a23c fe0c dfbc
000000a0: f0a4 adbc 76d5 95bb 5d47 103d 6367 d3bb
000000b0: 5cff d03c b63d 3f3d 77b0 603d 587a 403d
000000c0: 3c87 09bd cadf 8a3c 809e afbc fb93 2fbd
000000d0: 10d4 34bd d518 8a3a 8901 debc 16ac 973c
000000e0: 5702 c2bb f3fb 523c 7c82 39bc e0c0 fb3c
000000f0: da12 09bd 910d d13b b212 443d 69f4 263c
00000100: 1b6f 35bc 0656 68ba 1a1d 8bbc 60ef 9ebc
00000110: 9624 1d3d 2a77 383d 41d5 f3bb a64a 3c3c
00000120: 0409 d5bc 312d df3c bf10 c53c ae8d 85bd
00000130: f167 6c3c 5a2f f33c 9a9c 183d 2eb7 5e3c
00000140: 243b 3a3d 358b 9e3c 6b74 4b3c edc8 93bc
00000150: 10bc 98bc 0932 4ebc fcfe a93c 62d9 d73b
00000160: 725e 0a3d acd6 033c 6811 cbbb 9fcb 993c
00000170: a3c7 afbb dcc0 ddbc c8c0 1bbc acff f73b
00000180: ed73 133d 2e82 2a3b 38d8 bd3b 18d0 16bc
00000190: 7fa2 0f3c 34c5 a6bc 6f48 a6bc 16f6 963b
000001a0: b42b 013d 86ee 00bd 60fb 4cba 6c75 8ebb
000001b0: 22e4 263d b867 11bc 1f3f 7d3c 7471 e8bb
000001c0: 8169 013d 4264 333c be2b 923c b9fa e43b
000001d0: 46f4 053c 5988 f0bb f7de a6bc b4de e03c
000001e0: 3a0f a03c dae6 203d 1b04 633b aeb0 7ebc
000001f0: c21a 9bbc 629c 523c a2e8 113d 7e54 a63c
00000200: e2f5 263d a014 b0bc 4c46 85bc 400b 8abc
00000210: d01e 3d3d b0b8 53bc 96bb 44bc 05ef 463b
00000220: 70ed 933c b63b 833c 253d 3dbc 2fa2 24bd
00000230: e984 4bbb d459 f6bb ea42 86bc 52fa f93b
00000240: ca6b ce3c 76c8 263c 8c23 1fbd 83e0 c6bc
00000250: a1ee 343d aa30 813c a2d4 a53c 1851 45bc
00000260: 2666 a2bb 6cde a5bc bd09 b8bc 0c28 a33c
00000270: 1bca 62bd 3550 92bc d6e7 013d a425 b0bc
00000280: 90a4 bdbc 77d6 d9bb a1b4 3fbd f1dd 84bc
00000290: b143 5a3b aac3 05bd cbda 51bd afe5 e4bc
000002a0: 0ce3 d5bc cd0a 783c 86d4 603c 594d 043d
000002b0: f909 873b ceda 543c c657 2dbd 3d21 223c
000002c0: 2d72 013c 9871 ee3b 4891 5cbc 40f9 223c
000002d0: baf4 443c 26d6 85bc 38bb 6cbc 29d3 b33c
000002e0: f51e 363c 078f aa3c bc2b 8fbc 019f 9dbc
000002f0: b4ee 17bc b191 95bc 9ee6 84bc 7c83 d1bc
00000300: c662 9e3c 0977 25bd 1ffa 01bb 8d26 143d
00000310: 28f3 8e3c 8652 99bb bfa1 1cbd 4015 993b
00000320: 5802 833c 2c88 b4bc c4e5 d5bc faac a93c
00000330: 611c b93b 418e 953c 0816 a83c ed4e b9bc
00000340: 8388 3a3d fc9b ce3c 6949 3c3d f271 a2bc
00000350: 42a9 873b 379b 4d3d 3a9c 393d 97af 0a3c
00000360: f5ed 0f3d 7996 513d c998 4a3c d7bd c6bc
00000370: c7bf c53b 0cf2 2e3d 6fa9 1b3d d12d 67bc
00000380: 9bfe 2e3c a1c2 0b3d 3efc 653c 6203 97bc
00000390: c083 ebbb a82d 463c 2b16 6c3c ecab a63c
000003a0: 5c02 b3bb 48ab 08bb 9a73 113b a1b3 41bc
000003b0: 313f 9cbb 1c3b cb3c 998d 21bc 918b 83bc
000003c0: f6e1 c5bc 8256 c23c 7c82 9c3b 5b35 b93c
000003d0: 3936 84bc 0310 fabb 5e76 a9bc 2912 82bc
000003e0: 1cd9 183d f127 2139 f511 903b cf5b 393c
000003f0: 3f7b 64bc f2a2 a3bc 13d7 c33c 3730 b03b

decoder.0.conv2d.bias f4 [32]
0.04692116 0.05121573 0.042335946 -0.003411316 -0.0025377325 0.026195906 0.0057501574 -0.022386251
0.04782547 -0.046190307 0.030391945 0.028321644 0.017253805 0.007183127 0.020731853 0.012841181
-0.032421082 0.025301728 0.014257353 -0.04337064 -0.024138734 0.044423617 -0.018697742 1.0572808e-05
-0.055329055 -0.025900418 0.032591455 0.037310436 0.03218768 -0.033245273 0.040842466 -0.0070862416
00000000: 6730 403d 96c7 513d 7568 2d3d 6390 5fbb
00000010: 1650 26bb cc98 d63c d16b bc3b 5f63 b7bc
00000020: a4e4 433d 0c32 3dbd 87f8 f83c cb02 e83c
00000030: da57 8d3c 7060 eb3b d9d5 a93c d163 523c
00000040: f8cb 04bd 9245 cf3c ac97 693c 6aa5 31bd
00000050: 98be c5bc 8af5 353d 022c 99bc dd61 3137
00000060: b8a0 62bd 1d2d d4bc 9e7e 053d d4d2 183d
00000070: 3bd7 033d 322c 08bd 6e4a 273d b433 e8bb

decoder.1.conv2d.weight f4 [16, 32, 3, 3]
0.010975344 0.00749808 0.0065248376 0.028406598 0.00941314 -0.033896547 0.012536453 0.042846337
0.0010385456 5.952169e-05 0.030895967 0.0030389363 0.013306423 0.0029405684 -0.010318004 0.026605325
0.043952174 -0.0041747917 0.029536849 0.03171731 0.027772147 0.046263903 0.020017445 -0.011102782
-0.013471878 -0.036073413 0.02049637 0.028685529 -0.008566266 0.035965953 0.040765513 0.04427286
-0.009047184 0.007975838 -0.0016447059 0.059600644 -0.008180576 0.016763512 -9.506499e-05 0.055718794
0.01671665 0.019490473 0.006893031 0.015629388 0.0071884803 -0.0026673912 -0.019907195 -0.015485596
0.015302942 0.04256435 0.009061704 0.016156903 -0.01713392 0.039091505 -0.012723829 0.048961293
0.0067094336 0.016667066 0.0066547645 0.010253312 0.05202083 0.036202814 -0.01222926 -0.018054996
0.034019582 0.027222853 -0.015388048 0.0057461876 0.09843618 0.06336719 0.026922176 0.10051296
-0.022803072 0.00052670075 -0.010415573 0.008227556 -0.05192891 0.0062257214 0.030114047 -0.02989103
-0.04207604 -0.009990041 0.006503374 -0.020685779 -0.003477886 -0.053137604 -0.01354054 0.012011642
-0.030175384 0.01212075 -0.034528196 -0.027060205 -0.016640518 0.00087048736 -0.009949894 0.014848115
0.0060712676 0.034704123 0.03740138 -0.01232103 -0.03831031 0.024764096 -0.00097519235 -0.0043558627
-0.008620935 0.010988858 0.019497884 -0.00600592 -0.005234734 -0.025896037 -0.009944399 0.01913431
0.007850346 0.008094464 -0.020067833 -0.010291167 -0.044865906 0.017799169 0.007961169 -0.047993507
-0.015152248 0.010982617 -0.011881477 0.002906234 -0.0105827525 -0.03120404 0.0073099667 0.02406709
0.03341599 0.054295633 0.020712227 -0.02298707 0.018392479 0.021000976 0.0036010907 0.008558527
-0.06130506 -0.02970388 -0.0056980266 -0.064201586 -0.0012533759 0.0007941936 -0.012334941 0.024823578
0.052954353 0.07136814 0.02930107 0.08911756 0.071836576 -0.061362162 0.015442617 0.069003575
-0.027149744 0.022028985 -0.015834434 0.015351335 -0.011968944 0.099390276 -7.026273e-06 -0.046584394
-0.05968012 0.035427853 0.010071836 -0.015129467 0.019011267 0.018276969 0.036694285 0.041948635
0.06553199 0.012166718 0.011349905 0.012996225 0.016888482 0.017595958 0.020185143 -0.009741811
-0.026050376 0.041091975 0.006983374 -0.022469293 0.050167985 0.035140015 0.06109541 0.049008377
0.050122436 0.0006812492 0.022161463 0.014392003 0.080171496 -0.0106861 -0.017657833 -0.007155326
-0.03484898 -0.021804435 -0.040471908 -0.0010083482 0.03058336 0.055336267 0.01326786 0.0062529463
0.027855624 0.024631739 0.030875145 0.008786792 -0.0013336985 -0.018493 -0.0040036542 -0.08717506
-0.070979916 0.006397853 0.008599957 -0.09698399 -0.06803573 0.016117366 -0.006922045 -0.072924666
0.0008940224 -0.012435596 -0.039155617 0.00410459 -0.0067898883 0.018094152 0.0013605404 0.011846238
0.02475678 0.008207571 -0.042825684 -0.019433875 -0.08687704 0.07203663 -0.08466456 -0.04848654
0.024786368 -0.10781321 -0.018512119 0.052226692 -0.02687446 -0.038108096 -0.04150611 -0.038694687
-0.019276258 -0.02801909 -0.005416724 -0.005372541 -0.052347157 -0.00633044 0.0018325576 -0.0312839
-0.04802079 -0.002693819 0.01684572 -0.019342786 0.04420976 0.037972346 0.009138119 -0.01367467
00000000: eed1 333c 74b2 f53b 4ece d53b f4b4 e83c
00000010: 9239 1a3c 1bd7 0abd b265 4d3c a47f 2f3d
00000020: cf1f 883a eea6 7938 8a19 fd3c e428 473b
00000030: 2f03 5a3c 8db6 403b d80c 29bc 69f3 d93c
00000040: 3207 343d b1cc 88bb 43f7 f13c 03ea 013d
00000050: 6a82 e33c 387f 3d3d a0fb a33c 71e8 35bc
00000060: 27b9 5cbc b7c1 13bd 01e8 a73c eafd ea3c
00000070: 8659 0cbc 0951 133d bdf9 263d 7557 353d
00000080: a43a 14bc 17ad 023c 2c93 d7ba ce1f 743d
00000090: d307 06bc a253 893c a15d c7b8 6439 643d
000000a0: 5bf1 883c 7caa 9f3c efde e13b 3409 803c
000000b0: 588d eb3b 66cf 2ebb 6a14 a3bc 4cb7 7dbc
000000c0: 31b9 7a3c f557 2e3d 8b77 143c 7b5b 843c
000000d0: 6f5c 8cbc 6a1e 203d 9b77 50bc a38b 483d
000000e0: cfda db3b 5f89 883c 3610 da3b 82fd 273c
000000f0: cb13 553d 6749 143d 3c5d 48bc 12e8 93bc
00000100: 1e58 0b3d 7602 df3c 271e 7cbc 844a bc3b
00000110: e898 c93d a8c6 813d e58b dc3c bdd9 cd3d
00000120: 82cd babc 4a12 0a3a 14a6 2abc dfcc 063c
00000130: 69b3 54bd 2301 cc3b bcb1 f63c 09de f4bc
00000140: ed57 2cbd 45ad 23bc 411a d53b 3975 a9bc
00000150: 3fed 63bb d1a6 59bd 24d9 5dbc 7acc 443c
00000160: 5e32 f7bc 1c96 463c 706d 0dbd 5dad ddbc
00000170: b251 88bc 6b31 643a e104 23bc 8245 733c
00000180: 7cf1 c63b e925 0e3d 3032 193d 25de 49bc
00000190: 46eb 1cbd 13de ca3c 0da4 7fba a0bb 8ebb
000001a0: d23e 0dbc 9c0a 343c 07ba 9f3c 4fcd c4bb
000001b0: 2288 abbb ed23 d4bc d5ed 22bc 8ebf 9c3c
000001c0: bd9e 003c a59e 043c 4c65 a4bc 489c 28bc
000001d0: 50c5 37bd 90cf 913c 906f 023c d794 44bd
000001e0: 2241 78bc 6ff0 333c 87aa 42bc 8476 3e3b
000001f0: 4863 2dbc 9d9f ffbc 7288 ef3b 5928 c53c
00000200: 35df 083d 1965 5e3d b0ac a93c 614f bcbc
00000210: d3ab 963c 3d0a ac3c 4700 6c3b 1039 0c3c
00000220: 041b 7bbd 8d55 f3bc 83b6 babb 1f7c 83bd
00000230: 5148 a4ba 6e31 503a 7e18 4abc d15a cb3c
00000240: aae6 583d 7629 923d cc08 f03c 4483 b63d
00000250: 0e1f 933d e456 7bbd 0803 7d3c bf51 8d3d
00000260: 2469 debc 2176 b43c 37b7 81bc 2a84 7b3c
00000270: 6419 44bc 218d cb3d 3ac3 ebb6 47cf 3ebd
00000280: 2473 74bd cc1c 113d 5804 253c 95e1 77bc
00000290: 84bd 9b3c 95b9 953c bf4c 163d 55d2 2b3d
000002a0: a335 863d ea56 473c f4f4 393c 1eee 543c
000002b0: b759 8a3c 6625 903c 505b a53c 1e9c 1fbc
000002c0: 9967 d5bc 0f50 283d c9d4 e43b 8611 b8bc
000002d0: f27c 4d3d faee 0f3d 2e3f 7a3d 02bd 483d
000002e0: 2f4d 4d3d dc95 323a f58b b53c 70cc 6b3c
000002f0: f430 a43d c114 2fbc 29a7 90bc 3a77 eabb
00000300: cebd 0ebd 379f b2bc dfc5 25bd 8d2a 84ba
00000310: f489 fa3c 48a8 623d 7061 593c 84e5 cc3b
00000320: 7a31 e43c 80c8 c93c dfed fc3c 7af6 0f3c
00000330: 7fcf aeba a27e 97bc 1631 83bb d688 b2bd
00000340: eb5d 91bd 15a5 d13b d6e6 0c3c 8b9f c6bd
00000350: 5156 8bbd 9108 843c 52d2 e2bb 8759 95bd
00000360: d45c 6a3a acbe 4bbc a461 20bd cc7f 863b
00000370: b67d debb 303a 943c 2954 b23a b916 423c
00000380: bbce ca3c 0c79 063c fc69 2fbd ca33 9fbc
00000390: 97ec b1bd f187 933d 9d64 adbd d299 46bd
000003a0: c80c cb3c 2ccd dcbd baa6 97bc a8eb 553d
000003b0: d427 dcbc 3c17 1cbd 5002 2abd 527e 1ebd
000003c0: 3ee9 9dbc 4a88 e5bc c67e b1bb 240c b0bb
000003d0: f969 56bd 946f cfbb 6e32 f03a 8c23 00bd
000003e0: 73b1 44bd c98a 30bb 0900 8a3c c374 9ebc
000003f0: 4b15 353d e488 1b3d 0db8 153c b90b 60bc

decoder.1.conv2d.bias f4 [16]
0.024698067 -0.01337813 -0.019913971 -0.010066659 -0.012554019 -0.06752161 0.006895477 -0.028310355
-0.034251496 -0.05895494 0.0028164443 0.04289995 0.005687598 -0.013666563 -0.0072568925 -0.03221613
00000000: 9a53 ca3c f22f 5bbc a022 a3bc a1ee 24bc
00000010: 5faf 4dbc c548 8abd 74f3 e13b 1eeb e7bc
00000020: 4c4b 0cbd bc7a 71bd 1894 383b dcb7 2f3d
00000030: 085f ba3b b8e9 5fbc 3acb edbb 10f5 03bd
